WARNING: Logging before InitGoogleLogging() is written to STDERR
I0626 02:28:31.748890  8898 net.cpp:277] The NetState phase (0) differed from the phase (1) specified by a rule in layer data
I0626 02:28:31.749013  8898 net.cpp:39] Initializing net from parameters: 
name: "net"
layers {
  top: "data"
  name: "data"
  type: DATA
  data_param {
    source: "modules/image30x30_dim50/database/train"
    batch_size: 256
    backend: LEVELDB
  }
  include {
    phase: TRAIN
  }
  transform_param {
    scale: 1
  }
}
layers {
  bottom: "data"
  top: "data_drop"
  name: "data_dropdrop"
  type: DROPOUT
  dropout_param {
    dropout_ratio: 0
  }
}
layers {
  bottom: "data_drop"
  top: "inner1"
  name: "inner1"
  type: INNER_PRODUCT
  blobs_lr: 1
  blobs_lr: 2
  weight_decay: 1
  weight_decay: 0
  inner_product_param {
    num_output: 500
    weight_filler {
      type: "gaussian"
      std: 0.01
    }
    bias_filler {
      type: "constant"
      value: 0
    }
  }
}
layers {
  bottom: "inner1"
  top: "inner1"
  name: "inner1relu"
  type: RELU
}
layers {
  bottom: "inner1"
  top: "inner1"
  name: "inner1drop"
  type: DROPOUT
  dropout_param {
    dropout_ratio: 0.2
  }
}
layers {
  bottom: "inner1"
  top: "d_data"
  name: "d_data"
  type: INNER_PRODUCT
  blobs_lr: 1
  blobs_lr: 2
  weight_decay: 1
  weight_decay: 0
  inner_product_param {
    num_output: 3600
    weight_filler {
      type: "gaussian"
      std: 0.01
    }
    bias_filler {
      type: "constant"
      value: 0
    }
  }
}
layers {
  bottom: "d_data"
  bottom: "data"
  top: "pt_loss1"
  name: "pt_loss1"
  type: EUCLIDEAN_LOSS
}
I0626 02:28:31.749066  8898 net.cpp:67] Creating Layer data
I0626 02:28:31.749078  8898 net.cpp:358] data -> data
I0626 02:28:31.749094  8898 net.cpp:96] Setting up data
I0626 02:28:31.749122  8898 data_layer.cpp:45] Opening leveldb modules/image30x30_dim50/database/train
I0626 02:28:31.824822  8898 data_layer.cpp:145] output data size: 256,3600,1,1
I0626 02:28:31.825551  8898 net.cpp:103] Top shape: 256 3600 1 1 (921600)
I0626 02:28:31.825600  8898 net.cpp:67] Creating Layer data_data_0_split
I0626 02:28:31.825619  8898 net.cpp:396] data_data_0_split <- data
I0626 02:28:31.825641  8898 net.cpp:358] data_data_0_split -> data_data_0_split_0
I0626 02:28:31.825668  8898 net.cpp:358] data_data_0_split -> data_data_0_split_1
I0626 02:28:31.825690  8898 net.cpp:96] Setting up data_data_0_split
I0626 02:28:31.825716  8898 net.cpp:103] Top shape: 256 3600 1 1 (921600)
I0626 02:28:31.825733  8898 net.cpp:103] Top shape: 256 3600 1 1 (921600)
I0626 02:28:31.825763  8898 net.cpp:67] Creating Layer data_dropdrop
I0626 02:28:31.825779  8898 net.cpp:396] data_dropdrop <- data_data_0_split_0
I0626 02:28:31.825800  8898 net.cpp:358] data_dropdrop -> data_drop
I0626 02:28:31.825821  8898 net.cpp:96] Setting up data_dropdrop
I0626 02:28:31.825851  8898 net.cpp:103] Top shape: 256 3600 1 1 (921600)
I0626 02:28:31.825875  8898 net.cpp:67] Creating Layer inner1
I0626 02:28:31.825891  8898 net.cpp:396] inner1 <- data_drop
I0626 02:28:31.825911  8898 net.cpp:358] inner1 -> inner1
I0626 02:28:31.825934  8898 net.cpp:96] Setting up inner1
I0626 02:28:31.852154  8898 net.cpp:103] Top shape: 256 500 1 1 (128000)
I0626 02:28:31.852205  8898 net.cpp:67] Creating Layer inner1relu
I0626 02:28:31.852214  8898 net.cpp:396] inner1relu <- inner1
I0626 02:28:31.852226  8898 net.cpp:347] inner1relu -> inner1 (in-place)
I0626 02:28:31.852237  8898 net.cpp:96] Setting up inner1relu
I0626 02:28:31.852246  8898 net.cpp:103] Top shape: 256 500 1 1 (128000)
I0626 02:28:31.852255  8898 net.cpp:67] Creating Layer inner1drop
I0626 02:28:31.852263  8898 net.cpp:396] inner1drop <- inner1
I0626 02:28:31.852272  8898 net.cpp:347] inner1drop -> inner1 (in-place)
I0626 02:28:31.852282  8898 net.cpp:96] Setting up inner1drop
I0626 02:28:31.852289  8898 net.cpp:103] Top shape: 256 500 1 1 (128000)
I0626 02:28:31.852301  8898 net.cpp:67] Creating Layer d_data
I0626 02:28:31.852309  8898 net.cpp:396] d_data <- inner1
I0626 02:28:31.852319  8898 net.cpp:358] d_data -> d_data
I0626 02:28:31.852330  8898 net.cpp:96] Setting up d_data
I0626 02:28:31.873319  8898 net.cpp:103] Top shape: 256 3600 1 1 (921600)
I0626 02:28:31.873368  8898 net.cpp:67] Creating Layer pt_loss1
I0626 02:28:31.873378  8898 net.cpp:396] pt_loss1 <- d_data
I0626 02:28:31.873387  8898 net.cpp:396] pt_loss1 <- data_data_0_split_1
I0626 02:28:31.873396  8898 net.cpp:358] pt_loss1 -> pt_loss1
I0626 02:28:31.873407  8898 net.cpp:96] Setting up pt_loss1
I0626 02:28:31.873425  8898 net.cpp:103] Top shape: 1 1 1 1 (1)
I0626 02:28:31.873432  8898 net.cpp:109]     with loss weight 1
I0626 02:28:31.873448  8898 net.cpp:170] pt_loss1 needs backward computation.
I0626 02:28:31.873456  8898 net.cpp:170] d_data needs backward computation.
I0626 02:28:31.873464  8898 net.cpp:170] inner1drop needs backward computation.
I0626 02:28:31.873472  8898 net.cpp:170] inner1relu needs backward computation.
I0626 02:28:31.873479  8898 net.cpp:170] inner1 needs backward computation.
…
I0626 02:28:32.708915  8910 net.cpp:220] Memory required for data: 19968004
I0626 02:28:32.709060  8910 solver.cpp:151] Creating test net (#0) specified by net file: modules/image30x30_dim50/stack_net.prototxt
I0626 02:28:32.709081  8910 net.cpp:277] The NetState phase (1) differed from the phase (0) specified by a rule in layer data
I0626 02:28:32.709153  8910 net.cpp:39] Initializing net from parameters: 
name: "net"
layers {
  top: "data"
  name: "data"
  type: DATA
  data_param {
    source: "modules/image30x30_dim50/database/test"
    batch_size: 100
    backend: LEVELDB
  }
  include {
    phase: TEST
  }
  transform_param {
    scale: 1
  }
}
layers {
  bottom: "data"
  top: "data_drop"
  name: "data_dropdrop"
  type: DROPOUT
  dropout_param {
    dropout_ratio: 0
  }
}
layers {
  bottom: "data_drop"
  top: "inner1"
  name: "inner1"
  type: INNER_PRODUCT
  blobs_lr: 1
  blobs_lr: 2
  weight_decay: 1
  weight_decay: 0
  inner_product_param {
    num_output: 500
    weight_filler {
      type: "gaussian"
      std: 0.01
    }
    bias_filler {
      type: "constant"
      value: 0
    }
  }
}
layers {
  bottom: "inner1"
  top: "inner1"
  name: "inner1relu"
  type: RELU
}
layers {
  bottom: "inner1"
  top: "inner1"
  name: "inner1drop"
  type: DROPOUT
  dropout_param {
    dropout_ratio: 0.2
  }
}
layers {
  bottom: "inner1"
  top: "d_data"
  name: "d_data"
  type: INNER_PRODUCT
  blobs_lr: 1
  blobs_lr: 2
  weight_decay: 1
  weight_decay: 0
  inner_product_param {
    num_output: 3600
    weight_filler {
      type: "gaussian"
      std: 0.01
    }
    bias_filler {
      type: "constant"
      value: 0
    }
  }
}
layers {
  bottom: "d_data"
  bottom: "data"
  top: "pt_loss1"
  name: "pt_loss1"
  type: EUCLIDEAN_LOSS
}
state {
  phase: TEST
}
I0626 02:28:32.709208  8910 net.cpp:67] Creating Layer data
I0626 02:28:32.709221  8910 net.cpp:358] data -> data
I0626 02:28:32.709233  8910 net.cpp:96] Setting up data
I0626 02:28:32.709242  8910 data_layer.cpp:45] Opening leveldb modules/image30x30_dim50/database/test
I0626 02:28:32.792889  8910 data_layer.cpp:145] output data size: 100,3600,1,1
I0626 02:28:32.793128  8910 net.cpp:103] Top shape: 100 3600 1 1 (360000)
I0626 02:28:32.793162  8910 net.cpp:67] Creating Layer data_data_0_split
I0626 02:28:32.793181  8910 net.cpp:396] data_data_0_split <- data
I0626 02:28:32.793203  8910 net.cpp:358] data_data_0_split -> data_data_0_split_0
I0626 02:28:32.793229  8910 net.cpp:358] data_data_0_split -> data_data_0_split_1
I0626 02:28:32.793253  8910 net.cpp:96] Setting up data_data_0_split
I0626 02:28:32.793272  8910 net.cpp:103] Top shape: 100 3600 1 1 (360000)
I0626 02:28:32.793290  8910 net.cpp:103] Top shape: 100 3600 1 1 (360000)
I0626 02:28:32.793313  8910 net.cpp:67] Creating Layer data_dropdrop
I0626 02:28:32.793329  8910 net.cpp:396] data_dropdrop <- data_data_0_split_0
I0626 02:28:32.793351  8910 net.cpp:358] data_dropdrop -> data_drop
I0626 02:28:32.793372  8910 net.cpp:96] Setting up data_dropdrop
I0626 02:28:32.793392  8910 net.cpp:103] Top shape: 100 3600 1 1 (360000)
I0626 02:28:32.793414  8910 net.cpp:67] Creating Layer inner1
I0626 02:28:32.793431  8910 net.cpp:396] inner1 <- data_drop
I0626 02:28:32.793452  8910 net.cpp:358] inner1 -> inner1
I0626 02:28:32.793475  8910 net.cpp:96] Setting up inner1
I0626 02:28:32.821962  8910 net.cpp:103] Top shape: 100 500 1 1 (50000)
I0626 02:28:32.822012  8910 net.cpp:67] Creating Layer inner1relu
I0626 02:28:32.822021  8910 net.cpp:396] inner1relu <- inner1
I0626 02:28:32.822033  8910 net.cpp:347] inner1relu -> inner1 (in-place)
I0626 02:28:32.822046  8910 net.cpp:96] Setting up inner1relu
I0626 02:28:32.822054  8910 net.cpp:103] Top shape: 100 500 1 1 (50000)
I0626 02:28:32.822064  8910 net.cpp:67] Creating Layer inner1drop
I0626 02:28:32.822072  8910 net.cpp:396] inner1drop <- inner1
I0626 02:28:32.822084  8910 net.cpp:347] inner1drop -> inner1 (in-place)
I0626 02:28:32.822094  8910 net.cpp:96] Setting up inner1drop
I0626 02:28:32.822103  8910 net.cpp:103] Top shape: 100 500 1 1 (50000)
I0626 02:28:32.822114  8910 net.cpp:67] Creating Layer d_data
I0626 02:28:32.822122  8910 net.cpp:396] d_data <- inner1
I0626 02:28:32.822134  8910 net.cpp:358] d_data -> d_data
I0626 02:28:32.822144  8910 net.cpp:96] Setting up d_data
I0626 02:28:32.843416  8910 net.cpp:103] Top shape: 100 3600 1 1 (360000)
I0626 02:28:32.843461  8910 net.cpp:67] Creating Layer pt_loss1
I0626 02:28:32.843477  8910 net.cpp:396] pt_loss1 <- d_data
I0626 02:28:32.843488  8910 net.cpp:396] pt_loss1 <- data_data_0_split_1
I0626 02:28:32.843508  8910 net.cpp:358] pt_loss1 -> pt_loss1
I0626 02:28:32.843523  8910 net.cpp:96] Setting up pt_loss1
I0626 02:28:32.843533  8910 net.cpp:103] Top shape: 1 1 1 1 (1)
I0626 02:28:32.843541  8910 net.cpp:109]     with loss weight 1
I0626 02:28:32.843557  8910 net.cpp:170] pt_loss1 needs backward computation.
I0626 02:28:32.843565  8910 net.cpp:170] d_data needs backward computation.
I0626 02:28:32.843574  8910 net.cpp:170] inner1drop needs backward computation.
I0626 02:28:32.843581  8910 net.cpp:170] inner1relu needs backward computation.
I0626 02:28:32.843590  8910 net.cpp:170] inner1 needs backward computation.
…
I0626 02:38:05.447916  8910 solver.cpp:299]     Test net output #0: pt_loss1 = 0.00623246 (* 1 = 0.00623246 loss)
I0626 02:38:05.447969  8910 solver.cpp:234] Optimization Done.
I0626 02:38:05.447985  8910 caffe.cpp:121] Optimization Done.
I0626 02:38:05.494976  8898 net.cpp:277] The NetState phase (1) differed from the phase (0) specified by a rule in layer data
I0626 02:38:05.495115  8898 net.cpp:39] Initializing net from parameters: 
name: "net"
layers {
  top: "data"
  name: "data"
  type: DATA
  data_param {
    source: "modules/image30x30_dim50/database/test"
    batch_size: 100
    backend: LEVELDB
  }
  include {
    phase: TEST
  }
  transform_param {
    scale: 1
  }
}
layers {
  bottom: "data"
  top: "data_drop"
  name: "data_dropdrop"
  type: DROPOUT
  dropout_param {
    dropout_ratio: 0
  }
}
layers {
  bottom: "data_drop"
  top: "inner1"
  name: "inner1"
  type: INNER_PRODUCT
  blobs_lr: 1
  blobs_lr: 2
  weight_decay: 1
  weight_decay: 0
  inner_product_param {
    num_output: 500
    weight_filler {
      type: "gaussian"
      std: 0.01
    }
    bias_filler {
      type: "constant"
      value: 0
    }
  }
}
layers {
  bottom: "inner1"
  top: "inner1"
  name: "inner1relu"
  type: RELU
}
layers {
  bottom: "inner1"
  top: "inner1"
  name: "inner1drop"
  type: DROPOUT
  dropout_param {
    dropout_ratio: 0.2
  }
}
layers {
  bottom: "inner1"
  top: "d_data"
  name: "d_data"
  type: INNER_PRODUCT
  blobs_lr: 1
  blobs_lr: 2
  weight_decay: 1
  weight_decay: 0
  inner_product_param {
    num_output: 3600
    weight_filler {
      type: "gaussian"
      std: 0.01
    }
    bias_filler {
      type: "constant"
      value: 0
    }
  }
}
layers {
  bottom: "d_data"
  bottom: "data"
  top: "pt_loss1"
  name: "pt_loss1"
  type: EUCLIDEAN_LOSS
}
I0626 02:38:05.495184  8898 net.cpp:67] Creating Layer data
I0626 02:38:05.495203  8898 net.cpp:358] data -> data
I0626 02:38:05.495223  8898 net.cpp:96] Setting up data
I0626 02:38:05.495235  8898 data_layer.cpp:45] Opening leveldb modules/image30x30_dim50/database/test
I0626 02:38:05.564278  8898 data_layer.cpp:145] output data size: 100,3600,1,1
I0626 02:38:05.565062  8898 net.cpp:103] Top shape: 100 3600 1 1 (360000)
I0626 02:38:05.565099  8898 net.cpp:67] Creating Layer data_data_0_split
I0626 02:38:05.565116  8898 net.cpp:396] data_data_0_split <- data
I0626 02:38:05.565138  8898 net.cpp:358] data_data_0_split -> data_data_0_split_0
I0626 02:38:05.565165  8898 net.cpp:358] data_data_0_split -> data_data_0_split_1
I0626 02:38:05.565186  8898 net.cpp:96] Setting up data_data_0_split
I0626 02:38:05.565205  8898 net.cpp:103] Top shape: 100 3600 1 1 (360000)
I0626 02:38:05.565223  8898 net.cpp:103] Top shape: 100 3600 1 1 (360000)
I0626 02:38:05.565244  8898 net.cpp:67] Creating Layer data_dropdrop
I0626 02:38:05.565261  8898 net.cpp:396] data_dropdrop <- data_data_0_split_0
I0626 02:38:05.565282  8898 net.cpp:358] data_dropdrop -> data_drop
I0626 02:38:05.565304  8898 net.cpp:96] Setting up data_dropdrop
I0626 02:38:05.565333  8898 net.cpp:103] Top shape: 100 3600 1 1 (360000)
I0626 02:38:05.565356  8898 net.cpp:67] Creating Layer inner1
I0626 02:38:05.565372  8898 net.cpp:396] inner1 <- data_drop
I0626 02:38:05.565403  8898 net.cpp:358] inner1 -> inner1
I0626 02:38:05.565428  8898 net.cpp:96] Setting up inner1
I0626 02:38:05.593705  8898 net.cpp:103] Top shape: 100 500 1 1 (50000)
I0626 02:38:05.593756  8898 net.cpp:67] Creating Layer inner1relu
I0626 02:38:05.593766  8898 net.cpp:396] inner1relu <- inner1
I0626 02:38:05.593778  8898 net.cpp:347] inner1relu -> inner1 (in-place)
I0626 02:38:05.593789  8898 net.cpp:96] Setting up inner1relu
I0626 02:38:05.593798  8898 net.cpp:103] Top shape: 100 500 1 1 (50000)
I0626 02:38:05.593807  8898 net.cpp:67] Creating Layer inner1drop
I0626 02:38:05.593816  8898 net.cpp:396] inner1drop <- inner1
I0626 02:38:05.593823  8898 net.cpp:347] inner1drop -> inner1 (in-place)
I0626 02:38:05.593833  8898 net.cpp:96] Setting up inner1drop
I0626 02:38:05.593842  8898 net.cpp:103] Top shape: 100 500 1 1 (50000)
I0626 02:38:05.593852  8898 net.cpp:67] Creating Layer d_data
I0626 02:38:05.593860  8898 net.cpp:396] d_data <- inner1
I0626 02:38:05.593870  8898 net.cpp:358] d_data -> d_data
I0626 02:38:05.593880  8898 net.cpp:96] Setting up d_data
I0626 02:38:05.614819  8898 net.cpp:103] Top shape: 100 3600 1 1 (360000)
I0626 02:38:05.614868  8898 net.cpp:67] Creating Layer pt_loss1
I0626 02:38:05.614878  8898 net.cpp:396] pt_loss1 <- d_data
I0626 02:38:05.614888  8898 net.cpp:396] pt_loss1 <- data_data_0_split_1
I0626 02:38:05.614897  8898 net.cpp:358] pt_loss1 -> pt_loss1
I0626 02:38:05.614908  8898 net.cpp:96] Setting up pt_loss1
I0626 02:38:05.614918  8898 net.cpp:103] Top shape: 1 1 1 1 (1)
I0626 02:38:05.614926  8898 net.cpp:109]     with loss weight 1
I0626 02:38:05.614943  8898 net.cpp:170] pt_loss1 needs backward computation.
I0626 02:38:05.614950  8898 net.cpp:170] d_data needs backward computation.
I0626 02:38:05.614959  8898 net.cpp:170] inner1drop needs backward computation.
I0626 02:38:05.614965  8898 net.cpp:170] inner1relu needs backward computation.
I0626 02:38:05.614972  8898 net.cpp:170] inner1 needs backward computation.
I0626 02:38:05.614980  8898 net.cpp:172] data_dropdrop does not need backward computation.
I0626 02:38:05.614989  8898 net.cpp:172] data_data_0_split does not need backward computation.
I0626 02:38:05.614996  8898 net.cpp:172] data does not need backward computation.
I0626 02:38:05.615003  8898 net.cpp:208] This network produces output pt_loss1
I0626 02:38:05.615015  8898 net.cpp:469] Collecting Learning Rate and Weight Decay.
I0626 02:38:05.615025  8898 net.cpp:219] Network initialization done.
I0626 02:38:05.615032  8898 net.cpp:220] Memory required for data: 7800004
I0626 02:38:05.632349  8898 net.cpp:277] The NetState phase (0) differed from the phase (1) specified by a rule in layer data
I0626 02:38:05.632452  8898 net.cpp:39] Initializing net from parameters: 
name: "net"
layers {
  top: "data"
  name: "data"
  type: DATA
  data_param {
    source: "modules/image30x30_dim50/database/train"
    batch_size: 256
    backend: LEVELDB
  }
  include {
    phase: TRAIN
  }
  transform_param {
    scale: 1
  }
}
layers {
  bottom: "data"
  top: "inner1"
  name: "inner1"
  type: INNER_PRODUCT
  blobs_lr: 0
  blobs_lr: 0
  weight_decay: 1
  weight_decay: 0
  inner_product_param {
    num_output: 500
    weight_filler {
      type: "gaussian"
      std: 0.05
    }
    bias_filler {
      type: "constant"
      value: 0
    }
  }
}
layers {
  bottom: "inner1"
  top: "inner1"
  name: "inner1relu"
  type: RELU
}
layers {
  bottom: "inner1"
  top: "inner1_drop"
  name: "inner1_dropdrop"
  type: DROPOUT
  dropout_param {
    dropout_ratio: 0.2
  }
}
layers {
  bottom: "inner1_drop"
  top: "inner2"
  name: "inner2"
  type: INNER_PRODUCT
  blobs_lr: 1
  blobs_lr: 2
  weight_decay: 1
  weight_decay: 0
  inner_product_param {
    num_output: 500
    weight_filler {
      type: "gaussian"
      std: 0.01
    }
    bias_filler {
      type: "constant"
      value: 0
    }
  }
}
layers {
  bottom: "inner2"
  top: "inner2"
  name: "inner2relu"
  type: RELU
}
layers {
  bottom: "inner2"
  top: "inner2"
  name: "inner2drop"
  type: DROPOUT
  dropout_param {
    dropout_ratio: 0.2
  }
}
layers {
  bottom: "inner2"
  top: "d_inner1"
  name: "d_inner1"
  type: INNER_PRODUCT
  blobs_lr: 1
  blobs_lr: 2
  weight_decay: 1
  weight_decay: 0
  inner_product_param {
    num_output: 500
    weight_filler {
      type: "gaussian"
      std: 0.01
    }
    bias_filler {
      type: "constant"
      value: 0
    }
  }
}
layers {
  bottom: "d_inner1"
  top: "d_inner1"
  name: "d_inner1relu"
  type: RELU
}
layers {
  bottom: "d_inner1"
  bottom: "inner1"
  top: "pt_loss2"
  name: "pt_loss2"
  type: EUCLIDEAN_LOSS
}
I0626 02:38:05.632513  8898 net.cpp:67] Creating Layer data
I0626 02:38:05.632524  8898 net.cpp:358] data -> data
I0626 02:38:05.632537  8898 net.cpp:96] Setting up data
I0626 02:38:05.632547  8898 data_layer.cpp:45] Opening leveldb modules/image30x30_dim50/database/train
I0626 02:38:05.732573  8898 data_layer.cpp:145] output data size: 256,3600,1,1
I0626 02:38:05.734318  8898 net.cpp:103] Top shape: 256 3600 1 1 (921600)
I0626 02:38:05.734372  8898 net.cpp:67] Creating Layer inner1
I0626 02:38:05.734392  8898 net.cpp:396] inner1 <- data
I0626 02:38:05.734416  8898 net.cpp:358] inner1 -> inner1
I0626 02:38:05.734442  8898 net.cpp:96] Setting up inner1
I0626 02:38:05.762516  8898 net.cpp:103] Top shape: 256 500 1 1 (128000)
I0626 02:38:05.762567  8898 net.cpp:67] Creating Layer inner1relu
I0626 02:38:05.762576  8898 net.cpp:396] inner1relu <- inner1
I0626 02:38:05.762586  8898 net.cpp:347] inner1relu -> inner1 (in-place)
I0626 02:38:05.762598  8898 net.cpp:96] Setting up inner1relu
I0626 02:38:05.762606  8898 net.cpp:103] Top shape: 256 500 1 1 (128000)
I0626 02:38:05.762616  8898 net.cpp:67] Creating Layer inner1_inner1relu_0_split
I0626 02:38:05.762624  8898 net.cpp:396] inner1_inner1relu_0_split <- inner1
I0626 02:38:05.762634  8898 net.cpp:358] inner1_inner1relu_0_split -> inner1_inner1relu_0_split_0
I0626 02:38:05.762645  8898 net.cpp:358] inner1_inner1relu_0_split -> inner1_inner1relu_0_split_1
I0626 02:38:05.762655  8898 net.cpp:96] Setting up inner1_inner1relu_0_split
I0626 02:38:05.762662  8898 net.cpp:103] Top shape: 256 500 1 1 (128000)
I0626 02:38:05.762670  8898 net.cpp:103] Top shape: 256 500 1 1 (128000)
I0626 02:38:05.762681  8898 net.cpp:67] Creating Layer inner1_dropdrop
I0626 02:38:05.762689  8898 net.cpp:396] inner1_dropdrop <- inner1_inner1relu_0_split_0
I0626 02:38:05.762699  8898 net.cpp:358] inner1_dropdrop -> inner1_drop
I0626 02:38:05.762711  8898 net.cpp:96] Setting up inner1_dropdrop
I0626 02:38:05.762719  8898 net.cpp:103] Top shape: 256 500 1 1 (128000)
I0626 02:38:05.762730  8898 net.cpp:67] Creating Layer inner2
I0626 02:38:05.762738  8898 net.cpp:396] inner2 <- inner1_drop
I0626 02:38:05.762748  8898 net.cpp:358] inner2 -> inner2
I0626 02:38:05.762758  8898 net.cpp:96] Setting up inner2
I0626 02:38:05.765615  8898 net.cpp:103] Top shape: 256 500 1 1 (128000)
I0626 02:38:05.765631  8898 net.cpp:67] Creating Layer inner2relu
I0626 02:38:05.765640  8898 net.cpp:396] inner2relu <- inner2
I0626 02:38:05.765650  8898 net.cpp:347] inner2relu -> inner2 (in-place)
I0626 02:38:05.765658  8898 net.cpp:96] Setting up inner2relu
I0626 02:38:05.765666  8898 net.cpp:103] Top shape: 256 500 1 1 (128000)
I0626 02:38:05.765676  8898 net.cpp:67] Creating Layer inner2drop
I0626 02:38:05.765682  8898 net.cpp:396] inner2drop <- inner2
I0626 02:38:05.765691  8898 net.cpp:347] inner2drop -> inner2 (in-place)
I0626 02:38:05.765700  8898 net.cpp:96] Setting up inner2drop
I0626 02:38:05.765708  8898 net.cpp:103] Top shape: 256 500 1 1 (128000)
I0626 02:38:05.765719  8898 net.cpp:67] Creating Layer d_inner1
I0626 02:38:05.765727  8898 net.cpp:396] d_inner1 <- inner2
I0626 02:38:05.765738  8898 net.cpp:358] d_inner1 -> d_inner1
I0626 02:38:05.765746  8898 net.cpp:96] Setting up d_inner1
I0626 02:38:05.768734  8898 net.cpp:103] Top shape: 256 500 1 1 (128000)
I0626 02:38:05.768751  8898 net.cpp:67] Creating Layer d_inner1relu
I0626 02:38:05.768774  8898 net.cpp:396] d_inner1relu <- d_inner1
I0626 02:38:05.768782  8898 net.cpp:347] d_inner1relu -> d_inner1 (in-place)
I0626 02:38:05.768792  8898 net.cpp:96] Setting up d_inner1relu
I0626 02:38:05.768800  8898 net.cpp:103] Top shape: 256 500 1 1 (128000)
I0626 02:38:05.768808  8898 net.cpp:67] Creating Layer pt_loss2
I0626 02:38:05.768816  8898 net.cpp:396] pt_loss2 <- d_inner1
I0626 02:38:05.768824  8898 net.cpp:396] pt_loss2 <- inner1_inner1relu_0_split_1
I0626 02:38:05.768836  8898 net.cpp:358] pt_loss2 -> pt_loss2
I0626 02:38:05.768844  8898 net.cpp:96] Setting up pt_loss2
I0626 02:38:05.768854  8898 net.cpp:103] Top shape: 1 1 1 1 (1)
I0626 02:38:05.768862  8898 net.cpp:109]     with loss weight 1
I0626 02:38:05.768878  8898 net.cpp:170] pt_loss2 needs backward computation.
I0626 02:38:05.768887  8898 net.cpp:170] d_inner1relu needs backward computation.
I0626 02:38:05.768894  8898 net.cpp:170] d_inner1 needs backward computation.
I0626 02:38:05.768901  8898 net.cpp:170] inner2drop needs backward computation.
I0626 02:38:05.768908  8898 net.cpp:170] inner2relu needs backward computation.
…
momentum_burnin: 1000
I0626 02:38:06.181371 27075 solver.cpp:67] Creating training net from net file: modules/image30x30_dim50/stack_net.prototxt
I0626 02:38:06.181537 27075 net.cpp:277] The NetState phase (0) differed from the phase (1) specified by a rule in layer data
I0626 02:38:06.181622 27075 net.cpp:39] Initializing net from parameters: 
name: "net"
layers {
  top: "data"
  name: "data"
  type: DATA
  data_param {
    source: "modules/image30x30_dim50/database/train"
    batch_size: 256
    backend: LEVELDB
  }
  include {
    phase: TRAIN
  }
  transform_param {
    scale: 1
  }
}
layers {
  bottom: "data"
  top: "inner1"
  name: "inner1"
  type: INNER_PRODUCT
  blobs_lr: 0
  blobs_lr: 0
  weight_decay: 1
  weight_decay: 0
  inner_product_param {
    num_output: 500
    weight_filler {
      type: "gaussian"
      std: 0.05
    }
    bias_filler {
      type: "constant"
      value: 0
    }
  }
}
layers {
  bottom: "inner1"
  top: "inner1"
  name: "inner1relu"
  type: RELU
}
layers {
  bottom: "inner1"
  top: "inner1_drop"
  name: "inner1_dropdrop"
  type: DROPOUT
  dropout_param {
    dropout_ratio: 0.2
  }
}
layers {
  bottom: "inner1_drop"
  top: "inner2"
  name: "inner2"
  type: INNER_PRODUCT
  blobs_lr: 1
  blobs_lr: 2
  weight_decay: 1
  weight_decay: 0
  inner_product_param {
    num_output: 500
    weight_filler {
      type: "gaussian"
      std: 0.01
    }
    bias_filler {
      type: "constant"
      value: 0
    }
  }
}
layers {
  bottom: "inner2"
  top: "inner2"
  name: "inner2relu"
  type: RELU
}
layers {
  bottom: "inner2"
  top: "inner2"
  name: "inner2drop"
  type: DROPOUT
  dropout_param {
    dropout_ratio: 0.2
  }
}
layers {
  bottom: "inner2"
  top: "d_inner1"
  name: "d_inner1"
  type: INNER_PRODUCT
  blobs_lr: 1
  blobs_lr: 2
  weight_decay: 1
  weight_decay: 0
  inner_product_param {
    num_output: 500
    weight_filler {
      type: "gaussian"
      std: 0.01
    }
    bias_filler {
      type: "constant"
      value: 0
    }
  }
}
layers {
  bottom: "d_inner1"
  top: "d_inner1"
  name: "d_inner1relu"
  type: RELU
}
layers {
  bottom: "d_inner1"
  bottom: "inner1"
  top: "pt_loss2"
  name: "pt_loss2"
  type: EUCLIDEAN_LOSS
}
state {
  phase: TRAIN
}
I0626 02:38:06.181699 27075 net.cpp:67] Creating Layer data
I0626 02:38:06.181712 27075 net.cpp:358] data -> data
I0626 02:38:06.181732 27075 net.cpp:96] Setting up data
I0626 02:38:06.181767 27075 data_layer.cpp:45] Opening leveldb modules/image30x30_dim50/database/train
I0626 02:38:06.275136 27075 data_layer.cpp:145] output data size: 256,3600,1,1
I0626 02:38:06.275354 27075 net.cpp:103] Top shape: 256 3600 1 1 (921600)
I0626 02:38:06.275391 27075 net.cpp:67] Creating Layer inner1
I0626 02:38:06.275409 27075 net.cpp:396] inner1 <- data
I0626 02:38:06.275431 27075 net.cpp:358] inner1 -> inner1
I0626 02:38:06.275462 27075 net.cpp:96] Setting up inner1
I0626 02:38:06.302353 27075 net.cpp:103] Top shape: 256 500 1 1 (128000)
I0626 02:38:06.302407 27075 net.cpp:67] Creating Layer inner1relu
I0626 02:38:06.302417 27075 net.cpp:396] inner1relu <- inner1
I0626 02:38:06.302428 27075 net.cpp:347] inner1relu -> inner1 (in-place)
I0626 02:38:06.302439 27075 net.cpp:96] Setting up inner1relu
I0626 02:38:06.302453 27075 net.cpp:103] Top shape: 256 500 1 1 (128000)
I0626 02:38:06.302464 27075 net.cpp:67] Creating Layer inner1_inner1relu_0_split
I0626 02:38:06.302471 27075 net.cpp:396] inner1_inner1relu_0_split <- inner1
I0626 02:38:06.302480 27075 net.cpp:358] inner1_inner1relu_0_split -> inner1_inner1relu_0_split_0
I0626 02:38:06.302491 27075 net.cpp:358] inner1_inner1relu_0_split -> inner1_inner1relu_0_split_1
I0626 02:38:06.302522 27075 net.cpp:96] Setting up inner1_inner1relu_0_split
I0626 02:38:06.302534 27075 net.cpp:103] Top shape: 256 500 1 1 (128000)
I0626 02:38:06.302542 27075 net.cpp:103] Top shape: 256 500 1 1 (128000)
I0626 02:38:06.302553 27075 net.cpp:67] Creating Layer inner1_dropdrop
I0626 02:38:06.302561 27075 net.cpp:396] inner1_dropdrop <- inner1_inner1relu_0_split_0
I0626 02:38:06.302577 27075 net.cpp:358] inner1_dropdrop -> inner1_drop
I0626 02:38:06.302588 27075 net.cpp:96] Setting up inner1_dropdrop
I0626 02:38:06.302598 27075 net.cpp:103] Top shape: 256 500 1 1 (128000)
I0626 02:38:06.302608 27075 net.cpp:67] Creating Layer inner2
I0626 02:38:06.302616 27075 net.cpp:396] inner2 <- inner1_drop
I0626 02:38:06.302626 27075 net.cpp:358] inner2 -> inner2
I0626 02:38:06.302636 27075 net.cpp:96] Setting up inner2
I0626 02:38:06.305600 27075 net.cpp:103] Top shape: 256 500 1 1 (128000)
I0626 02:38:06.305619 27075 net.cpp:67] Creating Layer inner2relu
I0626 02:38:06.305629 27075 net.cpp:396] inner2relu <- inner2
I0626 02:38:06.305637 27075 net.cpp:347] inner2relu -> inner2 (in-place)
I0626 02:38:06.305646 27075 net.cpp:96] Setting up inner2relu
I0626 02:38:06.305655 27075 net.cpp:103] Top shape: 256 500 1 1 (128000)
I0626 02:38:06.305663 27075 net.cpp:67] Creating Layer inner2drop
I0626 02:38:06.305671 27075 net.cpp:396] inner2drop <- inner2
I0626 02:38:06.305682 27075 net.cpp:347] inner2drop -> inner2 (in-place)
I0626 02:38:06.305691 27075 net.cpp:96] Setting up inner2drop
I0626 02:38:06.305699 27075 net.cpp:103] Top shape: 256 500 1 1 (128000)
I0626 02:38:06.305711 27075 net.cpp:67] Creating Layer d_inner1
I0626 02:38:06.305718 27075 net.cpp:396] d_inner1 <- inner2
I0626 02:38:06.305729 27075 net.cpp:358] d_inner1 -> d_inner1
I0626 02:38:06.305739 27075 net.cpp:96] Setting up d_inner1
I0626 02:38:06.308698 27075 net.cpp:103] Top shape: 256 500 1 1 (128000)
I0626 02:38:06.308715 27075 net.cpp:67] Creating Layer d_inner1relu
I0626 02:38:06.308728 27075 net.cpp:396] d_inner1relu <- d_inner1
I0626 02:38:06.308739 27075 net.cpp:347] d_inner1relu -> d_inner1 (in-place)
I0626 02:38:06.308749 27075 net.cpp:96] Setting up d_inner1relu
I0626 02:38:06.308758 27075 net.cpp:103] Top shape: 256 500 1 1 (128000)
I0626 02:38:06.308766 27075 net.cpp:67] Creating Layer pt_loss2
I0626 02:38:06.308773 27075 net.cpp:396] pt_loss2 <- d_inner1
I0626 02:38:06.308782 27075 net.cpp:396] pt_loss2 <- inner1_inner1relu_0_split_1
I0626 02:38:06.308791 27075 net.cpp:358] pt_loss2 -> pt_loss2
I0626 02:38:06.308800 27075 net.cpp:96] Setting up pt_loss2
I0626 02:38:06.308814 27075 net.cpp:103] Top shape: 1 1 1 1 (1)
I0626 02:38:06.308821 27075 net.cpp:109]     with loss weight 1
I0626 02:38:06.308846 27075 net.cpp:170] pt_loss2 needs backward computation.
I0626 02:38:06.308854 27075 net.cpp:170] d_inner1relu needs backward computation.
I0626 02:38:06.308862 27075 net.cpp:170] d_inner1 needs backward computation.
I0626 02:38:06.308871 27075 net.cpp:170] inner2drop needs backward computation.
I0626 02:38:06.308877 27075 net.cpp:170] inner2relu needs backward computation.
…
I0626 02:38:06.308966 27075 net.cpp:220] Memory required for data: 8806404
I0626 02:38:06.309123 27075 solver.cpp:151] Creating test net (#0) specified by net file: modules/image30x30_dim50/stack_net.prototxt
I0626 02:38:06.309154 27075 net.cpp:277] The NetState phase (1) differed from the phase (0) specified by a rule in layer data
I0626 02:38:06.309238 27075 net.cpp:39] Initializing net from parameters: 
name: "net"
layers {
  top: "data"
  name: "data"
  type: DATA
  data_param {
    source: "modules/image30x30_dim50/database/test"
    batch_size: 100
    backend: LEVELDB
  }
  include {
    phase: TEST
  }
  transform_param {
    scale: 1
  }
}
layers {
  bottom: "data"
  top: "inner1"
  name: "inner1"
  type: INNER_PRODUCT
  blobs_lr: 0
  blobs_lr: 0
  weight_decay: 1
  weight_decay: 0
  inner_product_param {
    num_output: 500
    weight_filler {
      type: "gaussian"
      std: 0.05
    }
    bias_filler {
      type: "constant"
      value: 0
    }
  }
}
layers {
  bottom: "inner1"
  top: "inner1"
  name: "inner1relu"
  type: RELU
}
layers {
  bottom: "inner1"
  top: "inner1_drop"
  name: "inner1_dropdrop"
  type: DROPOUT
  dropout_param {
    dropout_ratio: 0.2
  }
}
layers {
  bottom: "inner1_drop"
  top: "inner2"
  name: "inner2"
  type: INNER_PRODUCT
  blobs_lr: 1
  blobs_lr: 2
  weight_decay: 1
  weight_decay: 0
  inner_product_param {
    num_output: 500
    weight_filler {
      type: "gaussian"
      std: 0.01
    }
    bias_filler {
      type: "constant"
      value: 0
    }
  }
}
layers {
  bottom: "inner2"
  top: "inner2"
  name: "inner2relu"
  type: RELU
}
layers {
  bottom: "inner2"
  top: "inner2"
  name: "inner2drop"
  type: DROPOUT
  dropout_param {
    dropout_ratio: 0.2
  }
}
layers {
  bottom: "inner2"
  top: "d_inner1"
  name: "d_inner1"
  type: INNER_PRODUCT
  blobs_lr: 1
  blobs_lr: 2
  weight_decay: 1
  weight_decay: 0
  inner_product_param {
    num_output: 500
    weight_filler {
      type: "gaussian"
      std: 0.01
    }
    bias_filler {
      type: "constant"
      value: 0
    }
  }
}
layers {
  bottom: "d_inner1"
  top: "d_inner1"
  name: "d_inner1relu"
  type: RELU
}
layers {
  bottom: "d_inner1"
  bottom: "inner1"
  top: "pt_loss2"
  name: "pt_loss2"
  type: EUCLIDEAN_LOSS
}
state {
  phase: TEST
}
I0626 02:38:06.309294 27075 net.cpp:67] Creating Layer data
I0626 02:38:06.309307 27075 net.cpp:358] data -> data
I0626 02:38:06.309319 27075 net.cpp:96] Setting up data
I0626 02:38:06.309327 27075 data_layer.cpp:45] Opening leveldb modules/image30x30_dim50/database/test
I0626 02:38:06.409073 27075 data_layer.cpp:145] output data size: 100,3600,1,1
I0626 02:38:06.409306 27075 net.cpp:103] Top shape: 100 3600 1 1 (360000)
I0626 02:38:06.409340 27075 net.cpp:67] Creating Layer inner1
I0626 02:38:06.409358 27075 net.cpp:396] inner1 <- data
I0626 02:38:06.409379 27075 net.cpp:358] inner1 -> inner1
I0626 02:38:06.409405 27075 net.cpp:96] Setting up inner1
I0626 02:38:06.437986 27075 net.cpp:103] Top shape: 100 500 1 1 (50000)
I0626 02:38:06.438038 27075 net.cpp:67] Creating Layer inner1relu
I0626 02:38:06.438047 27075 net.cpp:396] inner1relu <- inner1
I0626 02:38:06.438057 27075 net.cpp:347] inner1relu -> inner1 (in-place)
I0626 02:38:06.438068 27075 net.cpp:96] Setting up inner1relu
I0626 02:38:06.438077 27075 net.cpp:103] Top shape: 100 500 1 1 (50000)
I0626 02:38:06.438086 27075 net.cpp:67] Creating Layer inner1_inner1relu_0_split
I0626 02:38:06.438094 27075 net.cpp:396] inner1_inner1relu_0_split <- inner1
I0626 02:38:06.438103 27075 net.cpp:358] inner1_inner1relu_0_split -> inner1_inner1relu_0_split_0
I0626 02:38:06.438115 27075 net.cpp:358] inner1_inner1relu_0_split -> inner1_inner1relu_0_split_1
I0626 02:38:06.438125 27075 net.cpp:96] Setting up inner1_inner1relu_0_split
I0626 02:38:06.438134 27075 net.cpp:103] Top shape: 100 500 1 1 (50000)
I0626 02:38:06.438143 27075 net.cpp:103] Top shape: 100 500 1 1 (50000)
I0626 02:38:06.438153 27075 net.cpp:67] Creating Layer inner1_dropdrop
I0626 02:38:06.438160 27075 net.cpp:396] inner1_dropdrop <- inner1_inner1relu_0_split_0
I0626 02:38:06.438170 27075 net.cpp:358] inner1_dropdrop -> inner1_drop
I0626 02:38:06.438184 27075 net.cpp:96] Setting up inner1_dropdrop
I0626 02:38:06.438194 27075 net.cpp:103] Top shape: 100 500 1 1 (50000)
I0626 02:38:06.438221 27075 net.cpp:67] Creating Layer inner2
I0626 02:38:06.438230 27075 net.cpp:396] inner2 <- inner1_drop
I0626 02:38:06.438241 27075 net.cpp:358] inner2 -> inner2
I0626 02:38:06.438251 27075 net.cpp:96] Setting up inner2
I0626 02:38:06.441195 27075 net.cpp:103] Top shape: 100 500 1 1 (50000)
I0626 02:38:06.441213 27075 net.cpp:67] Creating Layer inner2relu
I0626 02:38:06.441222 27075 net.cpp:396] inner2relu <- inner2
I0626 02:38:06.441231 27075 net.cpp:347] inner2relu -> inner2 (in-place)
I0626 02:38:06.441241 27075 net.cpp:96] Setting up inner2relu
I0626 02:38:06.441248 27075 net.cpp:103] Top shape: 100 500 1 1 (50000)
I0626 02:38:06.441257 27075 net.cpp:67] Creating Layer inner2drop
I0626 02:38:06.441265 27075 net.cpp:396] inner2drop <- inner2
I0626 02:38:06.441274 27075 net.cpp:347] inner2drop -> inner2 (in-place)
I0626 02:38:06.441283 27075 net.cpp:96] Setting up inner2drop
I0626 02:38:06.441292 27075 net.cpp:103] Top shape: 100 500 1 1 (50000)
I0626 02:38:06.441303 27075 net.cpp:67] Creating Layer d_inner1
I0626 02:38:06.441311 27075 net.cpp:396] d_inner1 <- inner2
I0626 02:38:06.441323 27075 net.cpp:358] d_inner1 -> d_inner1
I0626 02:38:06.441332 27075 net.cpp:96] Setting up d_inner1
I0626 02:38:06.444363 27075 net.cpp:103] Top shape: 100 500 1 1 (50000)
I0626 02:38:06.444397 27075 net.cpp:67] Creating Layer d_inner1relu
I0626 02:38:06.444406 27075 net.cpp:396] d_inner1relu <- d_inner1
I0626 02:38:06.444416 27075 net.cpp:347] d_inner1relu -> d_inner1 (in-place)
I0626 02:38:06.444427 27075 net.cpp:96] Setting up d_inner1relu
I0626 02:38:06.444435 27075 net.cpp:103] Top shape: 100 500 1 1 (50000)
I0626 02:38:06.444445 27075 net.cpp:67] Creating Layer pt_loss2
I0626 02:38:06.444453 27075 net.cpp:396] pt_loss2 <- d_inner1
I0626 02:38:06.444461 27075 net.cpp:396] pt_loss2 <- inner1_inner1relu_0_split_1
I0626 02:38:06.444473 27075 net.cpp:358] pt_loss2 -> pt_loss2
I0626 02:38:06.444484 27075 net.cpp:96] Setting up pt_loss2
I0626 02:38:06.444494 27075 net.cpp:103] Top shape: 1 1 1 1 (1)
I0626 02:38:06.444510 27075 net.cpp:109]     with loss weight 1
I0626 02:38:06.444527 27075 net.cpp:170] pt_loss2 needs backward computation.
I0626 02:38:06.444535 27075 net.cpp:170] d_inner1relu needs backward computation.
I0626 02:38:06.444543 27075 net.cpp:170] d_inner1 needs backward computation.
I0626 02:38:06.444551 27075 net.cpp:170] inner2drop needs backward computation.
I0626 02:38:06.444559 27075 net.cpp:170] inner2relu needs backward computation.
…
I0626 02:47:41.056510  8898 net.cpp:219] Network initialization done.
I0626 02:47:41.056517  8898 net.cpp:220] Memory required for data: 3440004
I0626 02:47:41.067049  8898 net.cpp:277] The NetState phase (0) differed from the phase (1) specified by a rule in layer data
I0626 02:47:41.067162  8898 net.cpp:39] Initializing net from parameters: 
name: "net"
layers {
  top: "data"
  name: "data"
  type: DATA
  data_param {
    source: "modules/image30x30_dim50/database/train"
    batch_size: 256
    backend: LEVELDB
  }
  include {
    phase: TRAIN
  }
  transform_param {
    scale: 1
  }
}
layers {
  bottom: "data"
  top: "inner1"
  name: "inner1"
  type: INNER_PRODUCT
  blobs_lr: 0
  blobs_lr: 0
  weight_decay: 1
  weight_decay: 0
  inner_product_param {
    num_output: 500
    weight_filler {
      type: "gaussian"
      std: 0.05
    }
    bias_filler {
      type: "constant"
      value: 0
    }
  }
}
layers {
  bottom: "inner1"
  top: "inner1"
  name: "inner1relu"
  type: RELU
}
layers {
  bottom: "inner1"
  top: "inner2"
  name: "inner2"
  type: INNER_PRODUCT
  blobs_lr: 0
  blobs_lr: 0
  weight_decay: 1
  weight_decay: 0
  inner_product_param {
    num_output: 500
    weight_filler {
      type: "gaussian"
      std: 0.05
    }
    bias_filler {
      type: "constant"
      value: 0
    }
  }
}
layers {
  bottom: "inner2"
  top: "inner2"
  name: "inner2relu"
  type: RELU
}
layers {
  bottom: "inner2"
  top: "inner2_drop"
  name: "inner2_dropdrop"
  type: DROPOUT
  dropout_param {
    dropout_ratio: 0.2
  }
}
layers {
  bottom: "inner2_drop"
  top: "inner3"
  name: "inner3"
  type: INNER_PRODUCT
  blobs_lr: 1
  blobs_lr: 2
  weight_decay: 1
  weight_decay: 0
  inner_product_param {
    num_output: 2000
    weight_filler {
      type: "gaussian"
      std: 0.01
    }
    bias_filler {
      type: "constant"
      value: 0
    }
  }
}
layers {
  bottom: "inner3"
  top: "inner3"
  name: "inner3relu"
  type: RELU
}
layers {
  bottom: "inner3"
  top: "inner3"
  name: "inner3drop"
  type: DROPOUT
  dropout_param {
    dropout_ratio: 0.2
  }
}
layers {
  bottom: "inner3"
  top: "d_inner2"
  name: "d_inner2"
  type: INNER_PRODUCT
  blobs_lr: 1
  blobs_lr: 2
  weight_decay: 1
  weight_decay: 0
  inner_product_param {
    num_output: 500
    weight_filler {
      type: "gaussian"
      std: 0.01
    }
    bias_filler {
      type: "constant"
      value: 0
    }
  }
}
layers {
  bottom: "d_inner2"
  top: "d_inner2"
  name: "d_inner2relu"
  type: RELU
}
layers {
  bottom: "d_inner2"
  bottom: "inner2"
  top: "pt_loss3"
  name: "pt_loss3"
  type: EUCLIDEAN_LOSS
}
I0626 02:47:41.067217  8898 net.cpp:67] Creating Layer data
I0626 02:47:41.067229  8898 net.cpp:358] data -> data
I0626 02:47:41.067243  8898 net.cpp:96] Setting up data
I0626 02:47:41.067252  8898 data_layer.cpp:45] Opening leveldb modules/image30x30_dim50/database/train
I0626 02:47:41.163672  8898 data_layer.cpp:145] output data size: 256,3600,1,1
I0626 02:47:41.165410  8898 net.cpp:103] Top shape: 256 3600 1 1 (921600)
I0626 02:47:41.165460  8898 net.cpp:67] Creating Layer inner1
I0626 02:47:41.165479  8898 net.cpp:396] inner1 <- data
I0626 02:47:41.165503  8898 net.cpp:358] inner1 -> inner1
I0626 02:47:41.165529  8898 net.cpp:96] Setting up inner1
I0626 02:47:41.191884  8898 net.cpp:103] Top shape: 256 500 1 1 (128000)
I0626 02:47:41.191932  8898 net.cpp:67] Creating Layer inner1relu
I0626 02:47:41.191942  8898 net.cpp:396] inner1relu <- inner1
I0626 02:47:41.191952  8898 net.cpp:347] inner1relu -> inner1 (in-place)
I0626 02:47:41.191974  8898 net.cpp:96] Setting up inner1relu
I0626 02:47:41.191983  8898 net.cpp:103] Top shape: 256 500 1 1 (128000)
I0626 02:47:41.191994  8898 net.cpp:67] Creating Layer inner2
I0626 02:47:41.192001  8898 net.cpp:396] inner2 <- inner1
I0626 02:47:41.192010  8898 net.cpp:358] inner2 -> inner2
I0626 02:47:41.192021  8898 net.cpp:96] Setting up inner2
I0626 02:47:41.194779  8898 net.cpp:103] Top shape: 256 500 1 1 (128000)
I0626 02:47:41.194795  8898 net.cpp:67] Creating Layer inner2relu
I0626 02:47:41.194803  8898 net.cpp:396] inner2relu <- inner2
I0626 02:47:41.194813  8898 net.cpp:347] inner2relu -> inner2 (in-place)
I0626 02:47:41.194821  8898 net.cpp:96] Setting up inner2relu
I0626 02:47:41.194828  8898 net.cpp:103] Top shape: 256 500 1 1 (128000)
I0626 02:47:41.194838  8898 net.cpp:67] Creating Layer inner2_inner2relu_0_split
I0626 02:47:41.194844  8898 net.cpp:396] inner2_inner2relu_0_split <- inner2
I0626 02:47:41.194854  8898 net.cpp:358] inner2_inner2relu_0_split -> inner2_inner2relu_0_split_0
I0626 02:47:41.194864  8898 net.cpp:358] inner2_inner2relu_0_split -> inner2_inner2relu_0_split_1
I0626 02:47:41.194874  8898 net.cpp:96] Setting up inner2_inner2relu_0_split
I0626 02:47:41.194882  8898 net.cpp:103] Top shape: 256 500 1 1 (128000)
I0626 02:47:41.194890  8898 net.cpp:103] Top shape: 256 500 1 1 (128000)
I0626 02:47:41.194900  8898 net.cpp:67] Creating Layer inner2_dropdrop
I0626 02:47:41.194907  8898 net.cpp:396] inner2_dropdrop <- inner2_inner2relu_0_split_0
I0626 02:47:41.194917  8898 net.cpp:358] inner2_dropdrop -> inner2_drop
I0626 02:47:41.194926  8898 net.cpp:96] Setting up inner2_dropdrop
I0626 02:47:41.194936  8898 net.cpp:103] Top shape: 256 500 1 1 (128000)
I0626 02:47:41.194944  8898 net.cpp:67] Creating Layer inner3
I0626 02:47:41.194952  8898 net.cpp:396] inner3 <- inner2_drop
I0626 02:47:41.194962  8898 net.cpp:358] inner3 -> inner3
I0626 02:47:41.194972  8898 net.cpp:96] Setting up inner3
I0626 02:47:41.206534  8898 net.cpp:103] Top shape: 256 2000 1 1 (512000)
I0626 02:47:41.206569  8898 net.cpp:67] Creating Layer inner3relu
I0626 02:47:41.206578  8898 net.cpp:396] inner3relu <- inner3
I0626 02:47:41.206588  8898 net.cpp:347] inner3relu -> inner3 (in-place)
I0626 02:47:41.206598  8898 net.cpp:96] Setting up inner3relu
I0626 02:47:41.206605  8898 net.cpp:103] Top shape: 256 2000 1 1 (512000)
I0626 02:47:41.206614  8898 net.cpp:67] Creating Layer inner3drop
I0626 02:47:41.206621  8898 net.cpp:396] inner3drop <- inner3
I0626 02:47:41.206630  8898 net.cpp:347] inner3drop -> inner3 (in-place)
I0626 02:47:41.206640  8898 net.cpp:96] Setting up inner3drop
I0626 02:47:41.206647  8898 net.cpp:103] Top shape: 256 2000 1 1 (512000)
I0626 02:47:41.206657  8898 net.cpp:67] Creating Layer d_inner2
I0626 02:47:41.206665  8898 net.cpp:396] d_inner2 <- inner3
I0626 02:47:41.206673  8898 net.cpp:358] d_inner2 -> d_inner2
I0626 02:47:41.206683  8898 net.cpp:96] Setting up d_inner2
I0626 02:47:41.218304  8898 net.cpp:103] Top shape: 256 500 1 1 (128000)
I0626 02:47:41.218338  8898 net.cpp:67] Creating Layer d_inner2relu
I0626 02:47:41.218346  8898 net.cpp:396] d_inner2relu <- d_inner2
I0626 02:47:41.218356  8898 net.cpp:347] d_inner2relu -> d_inner2 (in-place)
I0626 02:47:41.218366  8898 net.cpp:96] Setting up d_inner2relu
I0626 02:47:41.218374  8898 net.cpp:103] Top shape: 256 500 1 1 (128000)
I0626 02:47:41.218384  8898 net.cpp:67] Creating Layer pt_loss3
I0626 02:47:41.218390  8898 net.cpp:396] pt_loss3 <- d_inner2
I0626 02:47:41.218400  8898 net.cpp:396] pt_loss3 <- inner2_inner2relu_0_split_1
I0626 02:47:41.218408  8898 net.cpp:358] pt_loss3 -> pt_loss3
I0626 02:47:41.218420  8898 net.cpp:96] Setting up pt_loss3
I0626 02:47:41.218430  8898 net.cpp:103] Top shape: 1 1 1 1 (1)
I0626 02:47:41.218437  8898 net.cpp:109]     with loss weight 1
I0626 02:47:41.218454  8898 net.cpp:170] pt_loss3 needs backward computation.
I0626 02:47:41.218462  8898 net.cpp:170] d_inner2relu needs backward computation.
I0626 02:47:41.218469  8898 net.cpp:170] d_inner2 needs backward computation.
I0626 02:47:41.218477  8898 net.cpp:170] inner3drop needs backward computation.
I0626 02:47:41.218495  8898 net.cpp:170] inner3relu needs backward computation.
…
I0626 02:47:41.811345 12773 net.cpp:220] Memory required for data: 14438404
I0626 02:47:41.811522 12773 solver.cpp:151] Creating test net (#0) specified by net file: modules/image30x30_dim50/stack_net.prototxt
I0626 02:47:41.811547 12773 net.cpp:277] The NetState phase (1) differed from the phase (0) specified by a rule in layer data
I0626 02:47:41.811642 12773 net.cpp:39] Initializing net from parameters: 
name: "net"
layers {
  top: "data"
  name: "data"
  type: DATA
  data_param {
    source: "modules/image30x30_dim50/database/test"
    batch_size: 100
    backend: LEVELDB
  }
  include {
    phase: TEST
  }
  transform_param {
    scale: 1
  }
}
layers {
  bottom: "data"
  top: "inner1"
  name: "inner1"
  type: INNER_PRODUCT
  blobs_lr: 0
  blobs_lr: 0
  weight_decay: 1
  weight_decay: 0
  inner_product_param {
    num_output: 500
    weight_filler {
      type: "gaussian"
      std: 0.05
    }
    bias_filler {
      type: "constant"
      value: 0
    }
  }
}
layers {
  bottom: "inner1"
  top: "inner1"
  name: "inner1relu"
  type: RELU
}
layers {
  bottom: "inner1"
  top: "inner2"
  name: "inner2"
  type: INNER_PRODUCT
  blobs_lr: 0
  blobs_lr: 0
  weight_decay: 1
  weight_decay: 0
  inner_product_param {
    num_output: 500
    weight_filler {
      type: "gaussian"
      std: 0.05
    }
    bias_filler {
      type: "constant"
      value: 0
    }
  }
}
layers {
  bottom: "inner2"
  top: "inner2"
  name: "inner2relu"
  type: RELU
}
layers {
  bottom: "inner2"
  top: "inner2_drop"
  name: "inner2_dropdrop"
  type: DROPOUT
  dropout_param {
    dropout_ratio: 0.2
  }
}
layers {
  bottom: "inner2_drop"
  top: "inner3"
  name: "inner3"
  type: INNER_PRODUCT
  blobs_lr: 1
  blobs_lr: 2
  weight_decay: 1
  weight_decay: 0
  inner_product_param {
    num_output: 2000
    weight_filler {
      type: "gaussian"
      std: 0.01
    }
    bias_filler {
      type: "constant"
      value: 0
    }
  }
}
layers {
  bottom: "inner3"
  top: "inner3"
  name: "inner3relu"
  type: RELU
}
layers {
  bottom: "inner3"
  top: "inner3"
  name: "inner3drop"
  type: DROPOUT
  dropout_param {
    dropout_ratio: 0.2
  }
}
layers {
  bottom: "inner3"
  top: "d_inner2"
  name: "d_inner2"
  type: INNER_PRODUCT
  blobs_lr: 1
  blobs_lr: 2
  weight_decay: 1
  weight_decay: 0
  inner_product_param {
    num_output: 500
    weight_filler {
      type: "gaussian"
      std: 0.01
    }
    bias_filler {
      type: "constant"
      value: 0
    }
  }
}
layers {
  bottom: "d_inner2"
  top: "d_inner2"
  name: "d_inner2relu"
  type: RELU
}
layers {
  bottom: "d_inner2"
  bottom: "inner2"
  top: "pt_loss3"
  name: "pt_loss3"
  type: EUCLIDEAN_LOSS
}
state {
  phase: TEST
}
I0626 02:47:41.811702 12773 net.cpp:67] Creating Layer data
I0626 02:47:41.811712 12773 net.cpp:358] data -> data
I0626 02:47:41.811723 12773 net.cpp:96] Setting up data
I0626 02:47:41.811733 12773 data_layer.cpp:45] Opening leveldb modules/image30x30_dim50/database/test
I0626 02:47:41.906770 12773 data_layer.cpp:145] output data size: 100,3600,1,1
I0626 02:47:41.907006 12773 net.cpp:103] Top shape: 100 3600 1 1 (360000)
I0626 02:47:41.907058 12773 net.cpp:67] Creating Layer inner1
I0626 02:47:41.907081 12773 net.cpp:396] inner1 <- data
I0626 02:47:41.907099 12773 net.cpp:358] inner1 -> inner1
I0626 02:47:41.907126 12773 net.cpp:96] Setting up inner1
I0626 02:47:41.936657 12773 net.cpp:103] Top shape: 100 500 1 1 (50000)
I0626 02:47:41.936707 12773 net.cpp:67] Creating Layer inner1relu
I0626 02:47:41.936715 12773 net.cpp:396] inner1relu <- inner1
I0626 02:47:41.936725 12773 net.cpp:347] inner1relu -> inner1 (in-place)
I0626 02:47:41.936736 12773 net.cpp:96] Setting up inner1relu
I0626 02:47:41.936745 12773 net.cpp:103] Top shape: 100 500 1 1 (50000)
I0626 02:47:41.936755 12773 net.cpp:67] Creating Layer inner2
I0626 02:47:41.936764 12773 net.cpp:396] inner2 <- inner1
I0626 02:47:41.936772 12773 net.cpp:358] inner2 -> inner2
I0626 02:47:41.936784 12773 net.cpp:96] Setting up inner2
I0626 02:47:41.939741 12773 net.cpp:103] Top shape: 100 500 1 1 (50000)
I0626 02:47:41.939759 12773 net.cpp:67] Creating Layer inner2relu
I0626 02:47:41.939769 12773 net.cpp:396] inner2relu <- inner2
I0626 02:47:41.939776 12773 net.cpp:347] inner2relu -> inner2 (in-place)
I0626 02:47:41.939786 12773 net.cpp:96] Setting up inner2relu
I0626 02:47:41.939793 12773 net.cpp:103] Top shape: 100 500 1 1 (50000)
I0626 02:47:41.939805 12773 net.cpp:67] Creating Layer inner2_inner2relu_0_split
I0626 02:47:41.939812 12773 net.cpp:396] inner2_inner2relu_0_split <- inner2
I0626 02:47:41.939822 12773 net.cpp:358] inner2_inner2relu_0_split -> inner2_inner2relu_0_split_0
I0626 02:47:41.939832 12773 net.cpp:358] inner2_inner2relu_0_split -> inner2_inner2relu_0_split_1
I0626 02:47:41.939844 12773 net.cpp:96] Setting up inner2_inner2relu_0_split
I0626 02:47:41.939853 12773 net.cpp:103] Top shape: 100 500 1 1 (50000)
I0626 02:47:41.939862 12773 net.cpp:103] Top shape: 100 500 1 1 (50000)
I0626 02:47:41.939872 12773 net.cpp:67] Creating Layer inner2_dropdrop
I0626 02:47:41.939879 12773 net.cpp:396] inner2_dropdrop <- inner2_inner2relu_0_split_0
I0626 02:47:41.939889 12773 net.cpp:358] inner2_dropdrop -> inner2_drop
I0626 02:47:41.939898 12773 net.cpp:96] Setting up inner2_dropdrop
I0626 02:47:41.939908 12773 net.cpp:103] Top shape: 100 500 1 1 (50000)
I0626 02:47:41.939918 12773 net.cpp:67] Creating Layer inner3
I0626 02:47:41.939926 12773 net.cpp:396] inner3 <- inner2_drop
I0626 02:47:41.939936 12773 net.cpp:358] inner3 -> inner3
I0626 02:47:41.939947 12773 net.cpp:96] Setting up inner3
I0626 02:47:41.951675 12773 net.cpp:103] Top shape: 100 2000 1 1 (200000)
I0626 02:47:41.951710 12773 net.cpp:67] Creating Layer inner3relu
I0626 02:47:41.951719 12773 net.cpp:396] inner3relu <- inner3
I0626 02:47:41.951730 12773 net.cpp:347] inner3relu -> inner3 (in-place)
I0626 02:47:41.951740 12773 net.cpp:96] Setting up inner3relu
I0626 02:47:41.951748 12773 net.cpp:103] Top shape: 100 2000 1 1 (200000)
I0626 02:47:41.951767 12773 net.cpp:67] Creating Layer inner3drop
I0626 02:47:41.951776 12773 net.cpp:396] inner3drop <- inner3
I0626 02:47:41.951784 12773 net.cpp:347] inner3drop -> inner3 (in-place)
I0626 02:47:41.951793 12773 net.cpp:96] Setting up inner3drop
I0626 02:47:41.951802 12773 net.cpp:103] Top shape: 100 2000 1 1 (200000)
I0626 02:47:41.951814 12773 net.cpp:67] Creating Layer d_inner2
I0626 02:47:41.951822 12773 net.cpp:396] d_inner2 <- inner3
I0626 02:47:41.951831 12773 net.cpp:358] d_inner2 -> d_inner2
I0626 02:47:41.951843 12773 net.cpp:96] Setting up d_inner2
I0626 02:47:41.963739 12773 net.cpp:103] Top shape: 100 500 1 1 (50000)
I0626 02:47:41.963766 12773 net.cpp:67] Creating Layer d_inner2relu
I0626 02:47:41.963774 12773 net.cpp:396] d_inner2relu <- d_inner2
I0626 02:47:41.963785 12773 net.cpp:347] d_inner2relu -> d_inner2 (in-place)
I0626 02:47:41.963796 12773 net.cpp:96] Setting up d_inner2relu
I0626 02:47:41.963804 12773 net.cpp:103] Top shape: 100 500 1 1 (50000)
I0626 02:47:41.963814 12773 net.cpp:67] Creating Layer pt_loss3
I0626 02:47:41.963820 12773 net.cpp:396] pt_loss3 <- d_inner2
I0626 02:47:41.963829 12773 net.cpp:396] pt_loss3 <- inner2_inner2relu_0_split_1
I0626 02:47:41.963850 12773 net.cpp:358] pt_loss3 -> pt_loss3
I0626 02:47:41.963863 12773 net.cpp:96] Setting up pt_loss3
I0626 02:47:41.963874 12773 net.cpp:103] Top shape: 1 1 1 1 (1)
I0626 02:47:41.963882 12773 net.cpp:109]     with loss weight 1
I0626 02:47:41.963898 12773 net.cpp:170] pt_loss3 needs backward computation.
I0626 02:47:41.963907 12773 net.cpp:170] d_inner2relu needs backward computation.
I0626 02:47:41.963914 12773 net.cpp:170] d_inner2 needs backward computation.
I0626 02:47:41.963922 12773 net.cpp:170] inner3drop needs backward computation.
I0626 02:47:41.963929 12773 net.cpp:170] inner3relu needs backward computation.
…
I0626 02:57:12.452183  8898 net.cpp:219] Network initialization done.
I0626 02:57:12.452190  8898 net.cpp:220] Memory required for data: 5640004
I0626 02:57:12.469874  8898 net.cpp:277] The NetState phase (0) differed from the phase (1) specified by a rule in layer data
I0626 02:57:12.469991  8898 net.cpp:39] Initializing net from parameters: 
name: "net"
layers {
  top: "data"
  name: "data"
  type: DATA
  data_param {
    source: "modules/image30x30_dim50/database/train"
    batch_size: 256
    backend: LEVELDB
  }
  include {
    phase: TRAIN
  }
  transform_param {
    scale: 1
  }
}
layers {
  bottom: "data"
  top: "inner1"
  name: "inner1"
  type: INNER_PRODUCT
  blobs_lr: 0
  blobs_lr: 0
  weight_decay: 1
  weight_decay: 0
  inner_product_param {
    num_output: 500
    weight_filler {
      type: "gaussian"
      std: 0.05
    }
    bias_filler {
      type: "constant"
      value: 0
    }
  }
}
layers {
  bottom: "inner1"
  top: "inner1"
  name: "inner1relu"
  type: RELU
}
layers {
  bottom: "inner1"
  top: "inner2"
  name: "inner2"
  type: INNER_PRODUCT
  blobs_lr: 0
  blobs_lr: 0
  weight_decay: 1
  weight_decay: 0
  inner_product_param {
    num_output: 500
    weight_filler {
      type: "gaussian"
      std: 0.05
    }
    bias_filler {
      type: "constant"
      value: 0
    }
  }
}
layers {
  bottom: "inner2"
  top: "inner2"
  name: "inner2relu"
  type: RELU
}
layers {
  bottom: "inner2"
  top: "inner3"
  name: "inner3"
  type: INNER_PRODUCT
  blobs_lr: 0
  blobs_lr: 0
  weight_decay: 1
  weight_decay: 0
  inner_product_param {
    num_output: 2000
    weight_filler {
      type: "gaussian"
      std: 0.05
    }
    bias_filler {
      type: "constant"
      value: 0
    }
  }
}
layers {
  bottom: "inner3"
  top: "inner3"
  name: "inner3relu"
  type: RELU
}
layers {
  bottom: "inner3"
  top: "inner3_drop"
  name: "inner3_dropdrop"
  type: DROPOUT
  dropout_param {
    dropout_ratio: 0.2
  }
}
layers {
  bottom: "inner3_drop"
  top: "output"
  name: "output"
  type: INNER_PRODUCT
  blobs_lr: 1
  blobs_lr: 2
  weight_decay: 1
  weight_decay: 0
  inner_product_param {
    num_output: 50
    weight_filler {
      type: "gaussian"
      std: 0.01
    }
    bias_filler {
      type: "constant"
      value: 0
    }
  }
}
layers {
  bottom: "output"
  top: "d_inner3"
  name: "d_inner3"
  type: INNER_PRODUCT
  blobs_lr: 1
  blobs_lr: 2
  weight_decay: 1
  weight_decay: 0
  inner_product_param {
    num_output: 2000
    weight_filler {
      type: "gaussian"
      std: 0.01
    }
    bias_filler {
      type: "constant"
      value: 0
    }
  }
}
layers {
  bottom: "d_inner3"
  top: "d_inner3"
  name: "d_inner3relu"
  type: RELU
}
layers {
  bottom: "d_inner3"
  bottom: "inner3"
  top: "pt_loss4"
  name: "pt_loss4"
  type: EUCLIDEAN_LOSS
}
I0626 02:57:12.470054  8898 net.cpp:67] Creating Layer data
I0626 02:57:12.470067  8898 net.cpp:358] data -> data
I0626 02:57:12.470080  8898 net.cpp:96] Setting up data
I0626 02:57:12.470089  8898 data_layer.cpp:45] Opening leveldb modules/image30x30_dim50/database/train
I0626 02:57:12.554208  8898 data_layer.cpp:145] output data size: 256,3600,1,1
I0626 02:57:12.555979  8898 net.cpp:103] Top shape: 256 3600 1 1 (921600)
I0626 02:57:12.556031  8898 net.cpp:67] Creating Layer inner1
I0626 02:57:12.556057  8898 net.cpp:396] inner1 <- data
I0626 02:57:12.556079  8898 net.cpp:358] inner1 -> inner1
I0626 02:57:12.556104  8898 net.cpp:96] Setting up inner1
I0626 02:57:12.580832  8898 net.cpp:103] Top shape: 256 500 1 1 (128000)
I0626 02:57:12.580884  8898 net.cpp:67] Creating Layer inner1relu
I0626 02:57:12.580893  8898 net.cpp:396] inner1relu <- inner1
I0626 02:57:12.580904  8898 net.cpp:347] inner1relu -> inner1 (in-place)
I0626 02:57:12.580914  8898 net.cpp:96] Setting up inner1relu
I0626 02:57:12.580922  8898 net.cpp:103] Top shape: 256 500 1 1 (128000)
I0626 02:57:12.580934  8898 net.cpp:67] Creating Layer inner2
I0626 02:57:12.580940  8898 net.cpp:396] inner2 <- inner1
I0626 02:57:12.580950  8898 net.cpp:358] inner2 -> inner2
I0626 02:57:12.580960  8898 net.cpp:96] Setting up inner2
I0626 02:57:12.583925  8898 net.cpp:103] Top shape: 256 500 1 1 (128000)
I0626 02:57:12.583943  8898 net.cpp:67] Creating Layer inner2relu
I0626 02:57:12.583951  8898 net.cpp:396] inner2relu <- inner2
I0626 02:57:12.583961  8898 net.cpp:347] inner2relu -> inner2 (in-place)
I0626 02:57:12.583968  8898 net.cpp:96] Setting up inner2relu
I0626 02:57:12.583976  8898 net.cpp:103] Top shape: 256 500 1 1 (128000)
I0626 02:57:12.583986  8898 net.cpp:67] Creating Layer inner3
I0626 02:57:12.583993  8898 net.cpp:396] inner3 <- inner2
I0626 02:57:12.584002  8898 net.cpp:358] inner3 -> inner3
I0626 02:57:12.584012  8898 net.cpp:96] Setting up inner3
I0626 02:57:12.595696  8898 net.cpp:103] Top shape: 256 2000 1 1 (512000)
I0626 02:57:12.595743  8898 net.cpp:67] Creating Layer inner3relu
I0626 02:57:12.595752  8898 net.cpp:396] inner3relu <- inner3
I0626 02:57:12.595763  8898 net.cpp:347] inner3relu -> inner3 (in-place)
I0626 02:57:12.595773  8898 net.cpp:96] Setting up inner3relu
I0626 02:57:12.595780  8898 net.cpp:103] Top shape: 256 2000 1 1 (512000)
I0626 02:57:12.595789  8898 net.cpp:67] Creating Layer inner3_inner3relu_0_split
I0626 02:57:12.595798  8898 net.cpp:396] inner3_inner3relu_0_split <- inner3
I0626 02:57:12.595805  8898 net.cpp:358] inner3_inner3relu_0_split -> inner3_inner3relu_0_split_0
I0626 02:57:12.595818  8898 net.cpp:358] inner3_inner3relu_0_split -> inner3_inner3relu_0_split_1
I0626 02:57:12.595827  8898 net.cpp:96] Setting up inner3_inner3relu_0_split
I0626 02:57:12.595835  8898 net.cpp:103] Top shape: 256 2000 1 1 (512000)
I0626 02:57:12.595844  8898 net.cpp:103] Top shape: 256 2000 1 1 (512000)
I0626 02:57:12.595854  8898 net.cpp:67] Creating Layer inner3_dropdrop
I0626 02:57:12.595861  8898 net.cpp:396] inner3_dropdrop <- inner3_inner3relu_0_split_0
I0626 02:57:12.595871  8898 net.cpp:358] inner3_dropdrop -> inner3_drop
I0626 02:57:12.595881  8898 net.cpp:96] Setting up inner3_dropdrop
I0626 02:57:12.595890  8898 net.cpp:103] Top shape: 256 2000 1 1 (512000)
I0626 02:57:12.595899  8898 net.cpp:67] Creating Layer output
I0626 02:57:12.595907  8898 net.cpp:396] output <- inner3_drop
I0626 02:57:12.595916  8898 net.cpp:358] output -> output
I0626 02:57:12.595927  8898 net.cpp:96] Setting up output
I0626 02:57:12.597092  8898 net.cpp:103] Top shape: 256 50 1 1 (12800)
I0626 02:57:12.597107  8898 net.cpp:67] Creating Layer d_inner3
I0626 02:57:12.597115  8898 net.cpp:396] d_inner3 <- output
I0626 02:57:12.597126  8898 net.cpp:358] d_inner3 -> d_inner3
I0626 02:57:12.597136  8898 net.cpp:96] Setting up d_inner3
I0626 02:57:12.598306  8898 net.cpp:103] Top shape: 256 2000 1 1 (512000)
I0626 02:57:12.598322  8898 net.cpp:67] Creating Layer d_inner3relu
I0626 02:57:12.598330  8898 net.cpp:396] d_inner3relu <- d_inner3
I0626 02:57:12.598340  8898 net.cpp:347] d_inner3relu -> d_inner3 (in-place)
I0626 02:57:12.598348  8898 net.cpp:96] Setting up d_inner3relu
I0626 02:57:12.598356  8898 net.cpp:103] Top shape: 256 2000 1 1 (512000)
I0626 02:57:12.598366  8898 net.cpp:67] Creating Layer pt_loss4
I0626 02:57:12.598372  8898 net.cpp:396] pt_loss4 <- d_inner3
I0626 02:57:12.598381  8898 net.cpp:396] pt_loss4 <- inner3_inner3relu_0_split_1
I0626 02:57:12.598389  8898 net.cpp:358] pt_loss4 -> pt_loss4
I0626 02:57:12.598398  8898 net.cpp:96] Setting up pt_loss4
I0626 02:57:12.598407  8898 net.cpp:103] Top shape: 1 1 1 1 (1)
I0626 02:57:12.598415  8898 net.cpp:109]     with loss weight 1
I0626 02:57:12.598431  8898 net.cpp:170] pt_loss4 needs backward computation.
I0626 02:57:12.598439  8898 net.cpp:170] d_inner3relu needs backward computation.
I0626 02:57:12.598446  8898 net.cpp:170] d_inner3 needs backward computation.
I0626 02:57:12.598453  8898 net.cpp:170] output needs backward computation.
I0626 02:57:12.598461  8898 net.cpp:172] inner3_dropdrop does not need backward computation.
…
I0626 02:57:13.151778 30935 net.cpp:220] Memory required for data: 20121604
I0626 02:57:13.151950 30935 solver.cpp:151] Creating test net (#0) specified by net file: modules/image30x30_dim50/stack_net.prototxt
I0626 02:57:13.151973 30935 net.cpp:277] The NetState phase (1) differed from the phase (0) specified by a rule in layer data
I0626 02:57:13.152072 30935 net.cpp:39] Initializing net from parameters: 
name: "net"
layers {
  top: "data"
  name: "data"
  type: DATA
  data_param {
    source: "modules/image30x30_dim50/database/test"
    batch_size: 100
    backend: LEVELDB
  }
  include {
    phase: TEST
  }
  transform_param {
    scale: 1
  }
}
layers {
  bottom: "data"
  top: "inner1"
  name: "inner1"
  type: INNER_PRODUCT
  blobs_lr: 0
  blobs_lr: 0
  weight_decay: 1
  weight_decay: 0
  inner_product_param {
    num_output: 500
    weight_filler {
      type: "gaussian"
      std: 0.05
    }
    bias_filler {
      type: "constant"
      value: 0
    }
  }
}
layers {
  bottom: "inner1"
  top: "inner1"
  name: "inner1relu"
  type: RELU
}
layers {
  bottom: "inner1"
  top: "inner2"
  name: "inner2"
  type: INNER_PRODUCT
  blobs_lr: 0
  blobs_lr: 0
  weight_decay: 1
  weight_decay: 0
  inner_product_param {
    num_output: 500
    weight_filler {
      type: "gaussian"
      std: 0.05
    }
    bias_filler {
      type: "constant"
      value: 0
    }
  }
}
layers {
  bottom: "inner2"
  top: "inner2"
  name: "inner2relu"
  type: RELU
}
layers {
  bottom: "inner2"
  top: "inner3"
  name: "inner3"
  type: INNER_PRODUCT
  blobs_lr: 0
  blobs_lr: 0
  weight_decay: 1
  weight_decay: 0
  inner_product_param {
    num_output: 2000
    weight_filler {
      type: "gaussian"
      std: 0.05
    }
    bias_filler {
      type: "constant"
      value: 0
    }
  }
}
layers {
  bottom: "inner3"
  top: "inner3"
  name: "inner3relu"
  type: RELU
}
layers {
  bottom: "inner3"
  top: "inner3_drop"
  name: "inner3_dropdrop"
  type: DROPOUT
  dropout_param {
    dropout_ratio: 0.2
  }
}
layers {
  bottom: "inner3_drop"
  top: "output"
  name: "output"
  type: INNER_PRODUCT
  blobs_lr: 1
  blobs_lr: 2
  weight_decay: 1
  weight_decay: 0
  inner_product_param {
    num_output: 50
    weight_filler {
      type: "gaussian"
      std: 0.01
    }
    bias_filler {
      type: "constant"
      value: 0
    }
  }
}
layers {
  bottom: "output"
  top: "d_inner3"
  name: "d_inner3"
  type: INNER_PRODUCT
  blobs_lr: 1
  blobs_lr: 2
  weight_decay: 1
  weight_decay: 0
  inner_product_param {
    num_output: 2000
    weight_filler {
      type: "gaussian"
      std: 0.01
    }
    bias_filler {
      type: "constant"
      value: 0
    }
  }
}
layers {
  bottom: "d_inner3"
  top: "d_inner3"
  name: "d_inner3relu"
  type: RELU
}
layers {
  bottom: "d_inner3"
  bottom: "inner3"
  top: "pt_loss4"
  name: "pt_loss4"
  type: EUCLIDEAN_LOSS
}
state {
  phase: TEST
}
I0626 02:57:13.152137 30935 net.cpp:67] Creating Layer data
I0626 02:57:13.152148 30935 net.cpp:358] data -> data
I0626 02:57:13.152159 30935 net.cpp:96] Setting up data
I0626 02:57:13.152169 30935 data_layer.cpp:45] Opening leveldb modules/image30x30_dim50/database/test
I0626 02:57:13.230602 30935 data_layer.cpp:145] output data size: 100,3600,1,1
I0626 02:57:13.230826 30935 net.cpp:103] Top shape: 100 3600 1 1 (360000)
I0626 02:57:13.230859 30935 net.cpp:67] Creating Layer inner1
I0626 02:57:13.230877 30935 net.cpp:396] inner1 <- data
I0626 02:57:13.230897 30935 net.cpp:358] inner1 -> inner1
I0626 02:57:13.230921 30935 net.cpp:96] Setting up inner1
I0626 02:57:13.258718 30935 net.cpp:103] Top shape: 100 500 1 1 (50000)
I0626 02:57:13.258767 30935 net.cpp:67] Creating Layer inner1relu
I0626 02:57:13.258777 30935 net.cpp:396] inner1relu <- inner1
I0626 02:57:13.258787 30935 net.cpp:347] inner1relu -> inner1 (in-place)
I0626 02:57:13.258800 30935 net.cpp:96] Setting up inner1relu
I0626 02:57:13.258808 30935 net.cpp:103] Top shape: 100 500 1 1 (50000)
I0626 02:57:13.258819 30935 net.cpp:67] Creating Layer inner2
I0626 02:57:13.258828 30935 net.cpp:396] inner2 <- inner1
I0626 02:57:13.258838 30935 net.cpp:358] inner2 -> inner2
I0626 02:57:13.258849 30935 net.cpp:96] Setting up inner2
I0626 02:57:13.261833 30935 net.cpp:103] Top shape: 100 500 1 1 (50000)
I0626 02:57:13.261853 30935 net.cpp:67] Creating Layer inner2relu
I0626 02:57:13.261862 30935 net.cpp:396] inner2relu <- inner2
I0626 02:57:13.261871 30935 net.cpp:347] inner2relu -> inner2 (in-place)
I0626 02:57:13.261880 30935 net.cpp:96] Setting up inner2relu
I0626 02:57:13.261888 30935 net.cpp:103] Top shape: 100 500 1 1 (50000)
I0626 02:57:13.261900 30935 net.cpp:67] Creating Layer inner3
I0626 02:57:13.261909 30935 net.cpp:396] inner3 <- inner2
I0626 02:57:13.261917 30935 net.cpp:358] inner3 -> inner3
I0626 02:57:13.261929 30935 net.cpp:96] Setting up inner3
I0626 02:57:13.273635 30935 net.cpp:103] Top shape: 100 2000 1 1 (200000)
I0626 02:57:13.273666 30935 net.cpp:67] Creating Layer inner3relu
I0626 02:57:13.273675 30935 net.cpp:396] inner3relu <- inner3
I0626 02:57:13.273686 30935 net.cpp:347] inner3relu -> inner3 (in-place)
I0626 02:57:13.273697 30935 net.cpp:96] Setting up inner3relu
I0626 02:57:13.273705 30935 net.cpp:103] Top shape: 100 2000 1 1 (200000)
I0626 02:57:13.273715 30935 net.cpp:67] Creating Layer inner3_inner3relu_0_split
I0626 02:57:13.273723 30935 net.cpp:396] inner3_inner3relu_0_split <- inner3
I0626 02:57:13.273732 30935 net.cpp:358] inner3_inner3relu_0_split -> inner3_inner3relu_0_split_0
I0626 02:57:13.273743 30935 net.cpp:358] inner3_inner3relu_0_split -> inner3_inner3relu_0_split_1
I0626 02:57:13.273756 30935 net.cpp:96] Setting up inner3_inner3relu_0_split
I0626 02:57:13.273766 30935 net.cpp:103] Top shape: 100 2000 1 1 (200000)
I0626 02:57:13.273773 30935 net.cpp:103] Top shape: 100 2000 1 1 (200000)
I0626 02:57:13.273784 30935 net.cpp:67] Creating Layer inner3_dropdrop
I0626 02:57:13.273792 30935 net.cpp:396] inner3_dropdrop <- inner3_inner3relu_0_split_0
I0626 02:57:13.273804 30935 net.cpp:358] inner3_dropdrop -> inner3_drop
I0626 02:57:13.273815 30935 net.cpp:96] Setting up inner3_dropdrop
I0626 02:57:13.273824 30935 net.cpp:103] Top shape: 100 2000 1 1 (200000)
I0626 02:57:13.273834 30935 net.cpp:67] Creating Layer output
I0626 02:57:13.273842 30935 net.cpp:396] output <- inner3_drop
I0626 02:57:13.273854 30935 net.cpp:358] output -> output
I0626 02:57:13.273864 30935 net.cpp:96] Setting up output
I0626 02:57:13.275053 30935 net.cpp:103] Top shape: 100 50 1 1 (5000)
I0626 02:57:13.275069 30935 net.cpp:67] Creating Layer d_inner3
I0626 02:57:13.275079 30935 net.cpp:396] d_inner3 <- output
I0626 02:57:13.275090 30935 net.cpp:358] d_inner3 -> d_inner3
I0626 02:57:13.275101 30935 net.cpp:96] Setting up d_inner3
I0626 02:57:13.276294 30935 net.cpp:103] Top shape: 100 2000 1 1 (200000)
I0626 02:57:13.276314 30935 net.cpp:67] Creating Layer d_inner3relu
I0626 02:57:13.276332 30935 net.cpp:396] d_inner3relu <- d_inner3
I0626 02:57:13.276342 30935 net.cpp:347] d_inner3relu -> d_inner3 (in-place)
I0626 02:57:13.276363 30935 net.cpp:96] Setting up d_inner3relu
I0626 02:57:13.276371 30935 net.cpp:103] Top shape: 100 2000 1 1 (200000)
I0626 02:57:13.276383 30935 net.cpp:67] Creating Layer pt_loss4
I0626 02:57:13.276391 30935 net.cpp:396] pt_loss4 <- d_inner3
I0626 02:57:13.276401 30935 net.cpp:396] pt_loss4 <- inner3_inner3relu_0_split_1
I0626 02:57:13.276409 30935 net.cpp:358] pt_loss4 -> pt_loss4
I0626 02:57:13.276419 30935 net.cpp:96] Setting up pt_loss4
I0626 02:57:13.276429 30935 net.cpp:103] Top shape: 1 1 1 1 (1)
I0626 02:57:13.276437 30935 net.cpp:109]     with loss weight 1
I0626 02:57:13.276453 30935 net.cpp:170] pt_loss4 needs backward computation.
I0626 02:57:13.276461 30935 net.cpp:170] d_inner3relu needs backward computation.
I0626 02:57:13.276469 30935 net.cpp:170] d_inner3 needs backward computation.
I0626 02:57:13.276477 30935 net.cpp:170] output needs backward computation.
I0626 02:57:13.276484 30935 net.cpp:172] inner3_dropdrop does not need backward computation.
…
I0626 03:06:32.230883  8898 net.cpp:219] Network initialization done.
I0626 03:06:32.230897  8898 net.cpp:220] Memory required for data: 7860004
I0626 03:06:32.245978  8898 net.cpp:277] The NetState phase (1) differed from the phase (0) specified by a rule in layer data
I0626 03:06:32.246157  8898 net.cpp:39] Initializing net from parameters: 
name: "net"
layers {
  top: "data"
  name: "data"
  type: DATA
  data_param {
    source: "modules/image30x30_dim50/database/test"
    batch_size: 100
    backend: LEVELDB
  }
  include {
    phase: TEST
  }
  transform_param {
    scale: 1
  }
}
layers {
  bottom: "data"
  top: "inner1"
  name: "inner1"
  type: INNER_PRODUCT
  blobs_lr: 1
  blobs_lr: 2
  weight_decay: 1
  weight_decay: 0
  inner_product_param {
    num_output: 500
    weight_filler {
      type: "gaussian"
      std: 0.016666668
    }
    bias_filler {
      type: "constant"
      value: 0
    }
  }
}
layers {
  bottom: "inner1"
  top: "inner1"
  name: "inner1relu"
  type: RELU
}
layers {
  bottom: "inner1"
  top: "inner1"
  name: "inner1drop"
  type: DROPOUT
  dropout_param {
    dropout_ratio: 0
  }
}
layers {
  bottom: "inner1"
  top: "inner2"
  name: "inner2"
  type: INNER_PRODUCT
  blobs_lr: 1
  blobs_lr: 2
  weight_decay: 1
  weight_decay: 0
  inner_product_param {
    num_output: 500
    weight_filler {
      type: "gaussian"
      std: 0.044721361
    }
    bias_filler {
      type: "constant"
      value: 0
    }
  }
}
layers {
  bottom: "inner2"
  top: "inner2"
  name: "inner2relu"
  type: RELU
}
layers {
  bottom: "inner2"
  top: "inner2"
  name: "inner2drop"
  type: DROPOUT
  dropout_param {
    dropout_ratio: 0
  }
}
layers {
  bottom: "inner2"
  top: "inner3"
  name: "inner3"
  type: INNER_PRODUCT
  blobs_lr: 1
  blobs_lr: 2
  weight_decay: 1
  weight_decay: 0
  inner_product_param {
    num_output: 2000
    weight_filler {
      type: "gaussian"
      std: 0.044721361
    }
    bias_filler {
      type: "constant"
      value: 0
    }
  }
}
layers {
  bottom: "inner3"
  top: "inner3"
  name: "inner3relu"
  type: RELU
}
layers {
  bottom: "inner3"
  top: "inner3"
  name: "inner3drop"
  type: DROPOUT
  dropout_param {
    dropout_ratio: 0
  }
}
layers {
  bottom: "inner3"
  top: "output"
  name: "output"
  type: INNER_PRODUCT
  blobs_lr: 1
  blobs_lr: 2
  weight_decay: 1
  weight_decay: 0
  inner_product_param {
    num_output: 50
    weight_filler {
      type: "gaussian"
      std: 0.022360681
    }
    bias_filler {
      type: "constant"
      value: 0
    }
  }
}
layers {
  bottom: "output"
  top: "output"
  name: "outputdrop"
  type: DROPOUT
  dropout_param {
    dropout_ratio: 0
  }
}
layers {
  bottom: "output"
  top: "d_inner3"
  name: "d_inner3"
  type: INNER_PRODUCT
  blobs_lr: 1
  blobs_lr: 2
  weight_decay: 1
  weight_decay: 0
  inner_product_param {
    num_output: 2000
    weight_filler {
      type: "gaussian"
      std: 0.14142136
    }
    bias_filler {
      type: "constant"
      value: 0
    }
  }
}
layers {
  bottom: "d_inner3"
  top: "d_inner3"
  name: "d_inner3relu"
  type: RELU
}
layers {
  bottom: "d_inner3"
  top: "d_inner3"
  name: "d_inner3drop"
  type: DROPOUT
  dropout_param {
    dropout_ratio: 0
  }
}
layers {
  bottom: "d_inner3"
  top: "d_inner2"
  name: "d_inner2"
  type: INNER_PRODUCT
  blobs_lr: 1
  blobs_lr: 2
  weight_decay: 1
  weight_decay: 0
  inner_product_param {
    num_output: 500
    weight_filler {
      type: "gaussian"
      std: 0.022360681
    }
    bias_filler {
      type: "constant"
      value: 0
    }
  }
}
layers {
  bottom: "d_inner2"
  top: "d_inner2"
  name: "d_inner2relu"
  type: RELU
}
layers {
  bottom: "d_inner2"
  top: "d_inner2"
  name: "d_inner2drop"
  type: DROPOUT
  dropout_param {
    dropout_ratio: 0
  }
}
layers {
  bottom: "d_inner2"
  top: "d_inner1"
  name: "d_inner1"
  type: INNER_PRODUCT
  blobs_lr: 1
  blobs_lr: 2
  weight_decay: 1
  weight_decay: 0
  inner_product_param {
    num_output: 500
    weight_filler {
      type: "gaussian"
      std: 0.044721361
    }
    bias_filler {
      type: "constant"
      value: 0
    }
  }
}
layers {
  bottom: "d_inner1"
  top: "d_inner1"
  name: "d_inner1relu"
  type: RELU
}
layers {
  bottom: "d_inner1"
  top: "d_inner1"
  name: "d_inner1drop"
  type: DROPOUT
  dropout_param {
    dropout_ratio: 0
  }
}
layers {
  bottom: "d_inner1"
  top: "d_data"
  name: "d_data"
  type: INNER_PRODUCT
  blobs_lr: 1
  blobs_lr: 2
  weight_decay: 1
  weight_decay: 0
  inner_product_param {
    num_output: 3600
    weight_filler {
      type: "gaussian"
      std: 0.044721361
    }
    bias_filler {
      type: "constant"
      value: 0
    }
  }
}
layers {
  bottom: "d_data"
  bottom: "data"
  top: "pt_loss"
  name: "pt_loss"
  type: EUCLIDEAN_LOSS
}
I0626 03:06:32.246245  8898 net.cpp:67] Creating Layer data
I0626 03:06:32.246259  8898 net.cpp:358] data -> data
I0626 03:06:32.246273  8898 net.cpp:96] Setting up data
I0626 03:06:32.246284  8898 data_layer.cpp:45] Opening leveldb modules/image30x30_dim50/database/test
I0626 03:06:32.334673  8898 data_layer.cpp:145] output data size: 100,3600,1,1
I0626 03:06:32.334961  8898 net.cpp:103] Top shape: 100 3600 1 1 (360000)
I0626 03:06:32.335000  8898 net.cpp:67] Creating Layer data_data_0_split
I0626 03:06:32.335019  8898 net.cpp:396] data_data_0_split <- data
I0626 03:06:32.335041  8898 net.cpp:358] data_data_0_split -> data_data_0_split_0
I0626 03:06:32.335083  8898 net.cpp:358] data_data_0_split -> data_data_0_split_1
I0626 03:06:32.335105  8898 net.cpp:96] Setting up data_data_0_split
I0626 03:06:32.335124  8898 net.cpp:103] Top shape: 100 3600 1 1 (360000)
I0626 03:06:32.335141  8898 net.cpp:103] Top shape: 100 3600 1 1 (360000)
I0626 03:06:32.335165  8898 net.cpp:67] Creating Layer inner1
I0626 03:06:32.335181  8898 net.cpp:396] inner1 <- data_data_0_split_0
I0626 03:06:32.335202  8898 net.cpp:358] inner1 -> inner1
I0626 03:06:32.335224  8898 net.cpp:96] Setting up inner1
I0626 03:06:32.362232  8898 net.cpp:103] Top shape: 100 500 1 1 (50000)
I0626 03:06:32.362280  8898 net.cpp:67] Creating Layer inner1relu
I0626 03:06:32.362290  8898 net.cpp:396] inner1relu <- inner1
I0626 03:06:32.362301  8898 net.cpp:347] inner1relu -> inner1 (in-place)
I0626 03:06:32.362313  8898 net.cpp:96] Setting up inner1relu
I0626 03:06:32.362321  8898 net.cpp:103] Top shape: 100 500 1 1 (50000)
I0626 03:06:32.362334  8898 net.cpp:67] Creating Layer inner1drop
I0626 03:06:32.362341  8898 net.cpp:396] inner1drop <- inner1
I0626 03:06:32.362350  8898 net.cpp:347] inner1drop -> inner1 (in-place)
I0626 03:06:32.362360  8898 net.cpp:96] Setting up inner1drop
I0626 03:06:32.362368  8898 net.cpp:103] Top shape: 100 500 1 1 (50000)
I0626 03:06:32.362378  8898 net.cpp:67] Creating Layer inner2
I0626 03:06:32.362386  8898 net.cpp:396] inner2 <- inner1
I0626 03:06:32.362396  8898 net.cpp:358] inner2 -> inner2
I0626 03:06:32.362407  8898 net.cpp:96] Setting up inner2
I0626 03:06:32.365192  8898 net.cpp:103] Top shape: 100 500 1 1 (50000)
I0626 03:06:32.365209  8898 net.cpp:67] Creating Layer inner2relu
I0626 03:06:32.365217  8898 net.cpp:396] inner2relu <- inner2
I0626 03:06:32.365226  8898 net.cpp:347] inner2relu -> inner2 (in-place)
I0626 03:06:32.365236  8898 net.cpp:96] Setting up inner2relu
I0626 03:06:32.365242  8898 net.cpp:103] Top shape: 100 500 1 1 (50000)
I0626 03:06:32.365252  8898 net.cpp:67] Creating Layer inner2drop
I0626 03:06:32.365258  8898 net.cpp:396] inner2drop <- inner2
I0626 03:06:32.365267  8898 net.cpp:347] inner2drop -> inner2 (in-place)
I0626 03:06:32.365276  8898 net.cpp:96] Setting up inner2drop
I0626 03:06:32.365283  8898 net.cpp:103] Top shape: 100 500 1 1 (50000)
I0626 03:06:32.365294  8898 net.cpp:67] Creating Layer inner3
I0626 03:06:32.365301  8898 net.cpp:396] inner3 <- inner2
I0626 03:06:32.365310  8898 net.cpp:358] inner3 -> inner3
I0626 03:06:32.365320  8898 net.cpp:96] Setting up inner3
I0626 03:06:32.376965  8898 net.cpp:103] Top shape: 100 2000 1 1 (200000)
I0626 03:06:32.377001  8898 net.cpp:67] Creating Layer inner3relu
I0626 03:06:32.377009  8898 net.cpp:396] inner3relu <- inner3
I0626 03:06:32.377020  8898 net.cpp:347] inner3relu -> inner3 (in-place)
I0626 03:06:32.377030  8898 net.cpp:96] Setting up inner3relu
I0626 03:06:32.377039  8898 net.cpp:103] Top shape: 100 2000 1 1 (200000)
I0626 03:06:32.377048  8898 net.cpp:67] Creating Layer inner3drop
I0626 03:06:32.377056  8898 net.cpp:396] inner3drop <- inner3
I0626 03:06:32.377065  8898 net.cpp:347] inner3drop -> inner3 (in-place)
I0626 03:06:32.377074  8898 net.cpp:96] Setting up inner3drop
I0626 03:06:32.377082  8898 net.cpp:103] Top shape: 100 2000 1 1 (200000)
I0626 03:06:32.377092  8898 net.cpp:67] Creating Layer output
I0626 03:06:32.377100  8898 net.cpp:396] output <- inner3
I0626 03:06:32.377110  8898 net.cpp:358] output -> output
I0626 03:06:32.377120  8898 net.cpp:96] Setting up output
I0626 03:06:32.378319  8898 net.cpp:103] Top shape: 100 50 1 1 (5000)
I0626 03:06:32.378334  8898 net.cpp:67] Creating Layer outputdrop
I0626 03:06:32.378341  8898 net.cpp:396] outputdrop <- output
I0626 03:06:32.378350  8898 net.cpp:347] outputdrop -> output (in-place)
I0626 03:06:32.378360  8898 net.cpp:96] Setting up outputdrop
I0626 03:06:32.378367  8898 net.cpp:103] Top shape: 100 50 1 1 (5000)
I0626 03:06:32.378377  8898 net.cpp:67] Creating Layer d_inner3
I0626 03:06:32.378384  8898 net.cpp:396] d_inner3 <- output
I0626 03:06:32.378394  8898 net.cpp:358] d_inner3 -> d_inner3
I0626 03:06:32.378415  8898 net.cpp:96] Setting up d_inner3
I0626 03:06:32.379562  8898 net.cpp:103] Top shape: 100 2000 1 1 (200000)
I0626 03:06:32.379580  8898 net.cpp:67] Creating Layer d_inner3relu
I0626 03:06:32.379587  8898 net.cpp:396] d_inner3relu <- d_inner3
I0626 03:06:32.379596  8898 net.cpp:347] d_inner3relu -> d_inner3 (in-place)
I0626 03:06:32.379606  8898 net.cpp:96] Setting up d_inner3relu
I0626 03:06:32.379613  8898 net.cpp:103] Top shape: 100 2000 1 1 (200000)
I0626 03:06:32.379622  8898 net.cpp:67] Creating Layer d_inner3drop
I0626 03:06:32.379629  8898 net.cpp:396] d_inner3drop <- d_inner3
I0626 03:06:32.379638  8898 net.cpp:347] d_inner3drop -> d_inner3 (in-place)
I0626 03:06:32.379647  8898 net.cpp:96] Setting up d_inner3drop
I0626 03:06:32.379655  8898 net.cpp:103] Top shape: 100 2000 1 1 (200000)
I0626 03:06:32.379667  8898 net.cpp:67] Creating Layer d_inner2
I0626 03:06:32.379674  8898 net.cpp:396] d_inner2 <- d_inner3
I0626 03:06:32.379684  8898 net.cpp:358] d_inner2 -> d_inner2
I0626 03:06:32.379694  8898 net.cpp:96] Setting up d_inner2
I0626 03:06:32.390817  8898 net.cpp:103] Top shape: 100 500 1 1 (50000)
I0626 03:06:32.390846  8898 net.cpp:67] Creating Layer d_inner2relu
I0626 03:06:32.390854  8898 net.cpp:396] d_inner2relu <- d_inner2
I0626 03:06:32.390863  8898 net.cpp:347] d_inner2relu -> d_inner2 (in-place)
I0626 03:06:32.390873  8898 net.cpp:96] Setting up d_inner2relu
I0626 03:06:32.390882  8898 net.cpp:103] Top shape: 100 500 1 1 (50000)
I0626 03:06:32.390890  8898 net.cpp:67] Creating Layer d_inner2drop
I0626 03:06:32.390897  8898 net.cpp:396] d_inner2drop <- d_inner2
I0626 03:06:32.390907  8898 net.cpp:347] d_inner2drop -> d_inner2 (in-place)
I0626 03:06:32.390915  8898 net.cpp:96] Setting up d_inner2drop
I0626 03:06:32.390923  8898 net.cpp:103] Top shape: 100 500 1 1 (50000)
I0626 03:06:32.390933  8898 net.cpp:67] Creating Layer d_inner1
I0626 03:06:32.390940  8898 net.cpp:396] d_inner1 <- d_inner2
I0626 03:06:32.390949  8898 net.cpp:358] d_inner1 -> d_inner1
I0626 03:06:32.390959  8898 net.cpp:96] Setting up d_inner1
I0626 03:06:32.393733  8898 net.cpp:103] Top shape: 100 500 1 1 (50000)
I0626 03:06:32.393748  8898 net.cpp:67] Creating Layer d_inner1relu
I0626 03:06:32.393755  8898 net.cpp:396] d_inner1relu <- d_inner1
I0626 03:06:32.393764  8898 net.cpp:347] d_inner1relu -> d_inner1 (in-place)
I0626 03:06:32.393774  8898 net.cpp:96] Setting up d_inner1relu
I0626 03:06:32.393780  8898 net.cpp:103] Top shape: 100 500 1 1 (50000)
I0626 03:06:32.393790  8898 net.cpp:67] Creating Layer d_inner1drop
I0626 03:06:32.393797  8898 net.cpp:396] d_inner1drop <- d_inner1
I0626 03:06:32.393805  8898 net.cpp:347] d_inner1drop -> d_inner1 (in-place)
I0626 03:06:32.393815  8898 net.cpp:96] Setting up d_inner1drop
I0626 03:06:32.393822  8898 net.cpp:103] Top shape: 100 500 1 1 (50000)
I0626 03:06:32.393831  8898 net.cpp:67] Creating Layer d_data
I0626 03:06:32.393838  8898 net.cpp:396] d_data <- d_inner1
I0626 03:06:32.393847  8898 net.cpp:358] d_data -> d_data
I0626 03:06:32.393857  8898 net.cpp:96] Setting up d_data
I0626 03:06:32.413784  8898 net.cpp:103] Top shape: 100 3600 1 1 (360000)
I0626 03:06:32.413830  8898 net.cpp:67] Creating Layer pt_loss
I0626 03:06:32.413839  8898 net.cpp:396] pt_loss <- d_data
I0626 03:06:32.413849  8898 net.cpp:396] pt_loss <- data_data_0_split_1
I0626 03:06:32.413859  8898 net.cpp:358] pt_loss -> pt_loss
I0626 03:06:32.413871  8898 net.cpp:96] Setting up pt_loss
I0626 03:06:32.413882  8898 net.cpp:103] Top shape: 1 1 1 1 (1)
I0626 03:06:32.413888  8898 net.cpp:109]     with loss weight 1
I0626 03:06:32.413904  8898 net.cpp:170] pt_loss needs backward computation.
I0626 03:06:32.413913  8898 net.cpp:170] d_data needs backward computation.
I0626 03:06:32.413920  8898 net.cpp:170] d_inner1drop needs backward computation.
I0626 03:06:32.413928  8898 net.cpp:170] d_inner1relu needs backward computation.
I0626 03:06:32.413935  8898 net.cpp:170] d_inner1 needs backward computation.
…
momentum_burnin: 1000
I0626 03:06:32.803388 16647 solver.cpp:67] Creating training net from net file: modules/image30x30_dim50/pt_net.prototxt
I0626 03:06:32.803640 16647 net.cpp:277] The NetState phase (0) differed from the phase (1) specified by a rule in layer data
I0626 03:06:32.803795 16647 net.cpp:39] Initializing net from parameters: 
name: "net"
layers {
  top: "data"
  name: "data"
  type: DATA
  data_param {
    source: "modules/image30x30_dim50/database/train"
    batch_size: 256
    backend: LEVELDB
  }
  include {
    phase: TRAIN
  }
  transform_param {
    scale: 1
  }
}
layers {
  bottom: "data"
  top: "inner1"
  name: "inner1"
  type: INNER_PRODUCT
  blobs_lr: 1
  blobs_lr: 2
  weight_decay: 1
  weight_decay: 0
  inner_product_param {
    num_output: 500
    weight_filler {
      type: "gaussian"
      std: 0.016666668
    }
    bias_filler {
      type: "constant"
      value: 0
    }
  }
}
layers {
  bottom: "inner1"
  top: "inner1"
  name: "inner1relu"
  type: RELU
}
layers {
  bottom: "inner1"
  top: "inner1"
  name: "inner1drop"
  type: DROPOUT
  dropout_param {
    dropout_ratio: 0
  }
}
layers {
  bottom: "inner1"
  top: "inner2"
  name: "inner2"
  type: INNER_PRODUCT
  blobs_lr: 1
  blobs_lr: 2
  weight_decay: 1
  weight_decay: 0
  inner_product_param {
    num_output: 500
    weight_filler {
      type: "gaussian"
      std: 0.044721361
    }
    bias_filler {
      type: "constant"
      value: 0
    }
  }
}
layers {
  bottom: "inner2"
  top: "inner2"
  name: "inner2relu"
  type: RELU
}
layers {
  bottom: "inner2"
  top: "inner2"
  name: "inner2drop"
  type: DROPOUT
  dropout_param {
    dropout_ratio: 0
  }
}
layers {
  bottom: "inner2"
  top: "inner3"
  name: "inner3"
  type: INNER_PRODUCT
  blobs_lr: 1
  blobs_lr: 2
  weight_decay: 1
  weight_decay: 0
  inner_product_param {
    num_output: 2000
    weight_filler {
      type: "gaussian"
      std: 0.044721361
    }
    bias_filler {
      type: "constant"
      value: 0
    }
  }
}
layers {
  bottom: "inner3"
  top: "inner3"
  name: "inner3relu"
  type: RELU
}
layers {
  bottom: "inner3"
  top: "inner3"
  name: "inner3drop"
  type: DROPOUT
  dropout_param {
    dropout_ratio: 0
  }
}
layers {
  bottom: "inner3"
  top: "output"
  name: "output"
  type: INNER_PRODUCT
  blobs_lr: 1
  blobs_lr: 2
  weight_decay: 1
  weight_decay: 0
  inner_product_param {
    num_output: 50
    weight_filler {
      type: "gaussian"
      std: 0.022360681
    }
    bias_filler {
      type: "constant"
      value: 0
    }
  }
}
layers {
  bottom: "output"
  top: "output"
  name: "outputdrop"
  type: DROPOUT
  dropout_param {
    dropout_ratio: 0
  }
}
layers {
  bottom: "output"
  top: "d_inner3"
  name: "d_inner3"
  type: INNER_PRODUCT
  blobs_lr: 1
  blobs_lr: 2
  weight_decay: 1
  weight_decay: 0
  inner_product_param {
    num_output: 2000
    weight_filler {
      type: "gaussian"
      std: 0.14142136
    }
    bias_filler {
      type: "constant"
      value: 0
    }
  }
}
layers {
  bottom: "d_inner3"
  top: "d_inner3"
  name: "d_inner3relu"
  type: RELU
}
layers {
  bottom: "d_inner3"
  top: "d_inner3"
  name: "d_inner3drop"
  type: DROPOUT
  dropout_param {
    dropout_ratio: 0
  }
}
layers {
  bottom: "d_inner3"
  top: "d_inner2"
  name: "d_inner2"
  type: INNER_PRODUCT
  blobs_lr: 1
  blobs_lr: 2
  weight_decay: 1
  weight_decay: 0
  inner_product_param {
    num_output: 500
    weight_filler {
      type: "gaussian"
      std: 0.022360681
    }
    bias_filler {
      type: "constant"
      value: 0
    }
  }
}
layers {
  bottom: "d_inner2"
  top: "d_inner2"
  name: "d_inner2relu"
  type: RELU
}
layers {
  bottom: "d_inner2"
  top: "d_inner2"
  name: "d_inner2drop"
  type: DROPOUT
  dropout_param {
    dropout_ratio: 0
  }
}
layers {
  bottom: "d_inner2"
  top: "d_inner1"
  name: "d_inner1"
  type: INNER_PRODUCT
  blobs_lr: 1
  blobs_lr: 2
  weight_decay: 1
  weight_decay: 0
  inner_product_param {
    num_output: 500
    weight_filler {
      type: "gaussian"
      std: 0.044721361
    }
    bias_filler {
      type: "constant"
      value: 0
    }
  }
}
layers {
  bottom: "d_inner1"
  top: "d_inner1"
  name: "d_inner1relu"
  type: RELU
}
layers {
  bottom: "d_inner1"
  top: "d_inner1"
  name: "d_inner1drop"
  type: DROPOUT
  dropout_param {
    dropout_ratio: 0
  }
}
layers {
  bottom: "d_inner1"
  top: "d_data"
  name: "d_data"
  type: INNER_PRODUCT
  blobs_lr: 1
  blobs_lr: 2
  weight_decay: 1
  weight_decay: 0
  inner_product_param {
    num_output: 3600
    weight_filler {
      type: "gaussian"
      std: 0.044721361
    }
    bias_filler {
      type: "constant"
      value: 0
    }
  }
}
layers {
  bottom: "d_data"
  bottom: "data"
  top: "pt_loss"
  name: "pt_loss"
  type: EUCLIDEAN_LOSS
}
state {
  phase: TRAIN
}
I0626 03:06:32.803911 16647 net.cpp:67] Creating Layer data
I0626 03:06:32.803925 16647 net.cpp:358] data -> data
I0626 03:06:32.803941 16647 net.cpp:96] Setting up data
I0626 03:06:32.803974 16647 data_layer.cpp:45] Opening leveldb modules/image30x30_dim50/database/train
I0626 03:06:32.869089 16647 data_layer.cpp:145] output data size: 256,3600,1,1
I0626 03:06:32.869258 16647 net.cpp:103] Top shape: 256 3600 1 1 (921600)
I0626 03:06:32.869293 16647 net.cpp:67] Creating Layer data_data_0_split
I0626 03:06:32.869310 16647 net.cpp:396] data_data_0_split <- data
I0626 03:06:32.869331 16647 net.cpp:358] data_data_0_split -> data_data_0_split_0
I0626 03:06:32.869361 16647 net.cpp:358] data_data_0_split -> data_data_0_split_1
I0626 03:06:32.869385 16647 net.cpp:96] Setting up data_data_0_split
I0626 03:06:32.869410 16647 net.cpp:103] Top shape: 256 3600 1 1 (921600)
I0626 03:06:32.869426 16647 net.cpp:103] Top shape: 256 3600 1 1 (921600)
I0626 03:06:32.869449 16647 net.cpp:67] Creating Layer inner1
I0626 03:06:32.869465 16647 net.cpp:396] inner1 <- data_data_0_split_0
I0626 03:06:32.869503 16647 net.cpp:358] inner1 -> inner1
I0626 03:06:32.869526 16647 net.cpp:96] Setting up inner1
I0626 03:06:32.895547 16647 net.cpp:103] Top shape: 256 500 1 1 (128000)
I0626 03:06:32.895606 16647 net.cpp:67] Creating Layer inner1relu
I0626 03:06:32.895615 16647 net.cpp:396] inner1relu <- inner1
I0626 03:06:32.895627 16647 net.cpp:347] inner1relu -> inner1 (in-place)
I0626 03:06:32.895639 16647 net.cpp:96] Setting up inner1relu
I0626 03:06:32.895654 16647 net.cpp:103] Top shape: 256 500 1 1 (128000)
I0626 03:06:32.895668 16647 net.cpp:67] Creating Layer inner1drop
I0626 03:06:32.895675 16647 net.cpp:396] inner1drop <- inner1
I0626 03:06:32.895685 16647 net.cpp:347] inner1drop -> inner1 (in-place)
I0626 03:06:32.895694 16647 net.cpp:96] Setting up inner1drop
I0626 03:06:32.895704 16647 net.cpp:103] Top shape: 256 500 1 1 (128000)
I0626 03:06:32.895715 16647 net.cpp:67] Creating Layer inner2
I0626 03:06:32.895723 16647 net.cpp:396] inner2 <- inner1
I0626 03:06:32.895733 16647 net.cpp:358] inner2 -> inner2
I0626 03:06:32.895745 16647 net.cpp:96] Setting up inner2
I0626 03:06:32.898828 16647 net.cpp:103] Top shape: 256 500 1 1 (128000)
I0626 03:06:32.898844 16647 net.cpp:67] Creating Layer inner2relu
I0626 03:06:32.898854 16647 net.cpp:396] inner2relu <- inner2
I0626 03:06:32.898862 16647 net.cpp:347] inner2relu -> inner2 (in-place)
I0626 03:06:32.898872 16647 net.cpp:96] Setting up inner2relu
I0626 03:06:32.898880 16647 net.cpp:103] Top shape: 256 500 1 1 (128000)
I0626 03:06:32.898891 16647 net.cpp:67] Creating Layer inner2drop
I0626 03:06:32.898900 16647 net.cpp:396] inner2drop <- inner2
I0626 03:06:32.898908 16647 net.cpp:347] inner2drop -> inner2 (in-place)
I0626 03:06:32.898917 16647 net.cpp:96] Setting up inner2drop
I0626 03:06:32.898926 16647 net.cpp:103] Top shape: 256 500 1 1 (128000)
I0626 03:06:32.898957 16647 net.cpp:67] Creating Layer inner3
I0626 03:06:32.898965 16647 net.cpp:396] inner3 <- inner2
I0626 03:06:32.898975 16647 net.cpp:358] inner3 -> inner3
I0626 03:06:32.898985 16647 net.cpp:96] Setting up inner3
I0626 03:06:32.910851 16647 net.cpp:103] Top shape: 256 2000 1 1 (512000)
I0626 03:06:32.910886 16647 net.cpp:67] Creating Layer inner3relu
I0626 03:06:32.910895 16647 net.cpp:396] inner3relu <- inner3
I0626 03:06:32.910905 16647 net.cpp:347] inner3relu -> inner3 (in-place)
I0626 03:06:32.910915 16647 net.cpp:96] Setting up inner3relu
I0626 03:06:32.910923 16647 net.cpp:103] Top shape: 256 2000 1 1 (512000)
I0626 03:06:32.910933 16647 net.cpp:67] Creating Layer inner3drop
I0626 03:06:32.910941 16647 net.cpp:396] inner3drop <- inner3
I0626 03:06:32.910949 16647 net.cpp:347] inner3drop -> inner3 (in-place)
I0626 03:06:32.910959 16647 net.cpp:96] Setting up inner3drop
I0626 03:06:32.910966 16647 net.cpp:103] Top shape: 256 2000 1 1 (512000)
I0626 03:06:32.910979 16647 net.cpp:67] Creating Layer output
I0626 03:06:32.910986 16647 net.cpp:396] output <- inner3
I0626 03:06:32.910996 16647 net.cpp:358] output -> output
I0626 03:06:32.911006 16647 net.cpp:96] Setting up output
I0626 03:06:32.912221 16647 net.cpp:103] Top shape: 256 50 1 1 (12800)
I0626 03:06:32.912240 16647 net.cpp:67] Creating Layer outputdrop
I0626 03:06:32.912247 16647 net.cpp:396] outputdrop <- output
I0626 03:06:32.912256 16647 net.cpp:347] outputdrop -> output (in-place)
I0626 03:06:32.912266 16647 net.cpp:96] Setting up outputdrop
I0626 03:06:32.912273 16647 net.cpp:103] Top shape: 256 50 1 1 (12800)
I0626 03:06:32.912283 16647 net.cpp:67] Creating Layer d_inner3
I0626 03:06:32.912292 16647 net.cpp:396] d_inner3 <- output
I0626 03:06:32.912302 16647 net.cpp:358] d_inner3 -> d_inner3
I0626 03:06:32.912312 16647 net.cpp:96] Setting up d_inner3
I0626 03:06:32.913496 16647 net.cpp:103] Top shape: 256 2000 1 1 (512000)
I0626 03:06:32.913513 16647 net.cpp:67] Creating Layer d_inner3relu
I0626 03:06:32.913522 16647 net.cpp:396] d_inner3relu <- d_inner3
I0626 03:06:32.913530 16647 net.cpp:347] d_inner3relu -> d_inner3 (in-place)
I0626 03:06:32.913540 16647 net.cpp:96] Setting up d_inner3relu
I0626 03:06:32.913547 16647 net.cpp:103] Top shape: 256 2000 1 1 (512000)
I0626 03:06:32.913564 16647 net.cpp:67] Creating Layer d_inner3drop
I0626 03:06:32.913573 16647 net.cpp:396] d_inner3drop <- d_inner3
I0626 03:06:32.913583 16647 net.cpp:347] d_inner3drop -> d_inner3 (in-place)
I0626 03:06:32.913592 16647 net.cpp:96] Setting up d_inner3drop
I0626 03:06:32.913600 16647 net.cpp:103] Top shape: 256 2000 1 1 (512000)
I0626 03:06:32.913614 16647 net.cpp:67] Creating Layer d_inner2
I0626 03:06:32.913621 16647 net.cpp:396] d_inner2 <- d_inner3
I0626 03:06:32.913631 16647 net.cpp:358] d_inner2 -> d_inner2
I0626 03:06:32.913642 16647 net.cpp:96] Setting up d_inner2
I0626 03:06:32.925412 16647 net.cpp:103] Top shape: 256 500 1 1 (128000)
I0626 03:06:32.925437 16647 net.cpp:67] Creating Layer d_inner2relu
I0626 03:06:32.925446 16647 net.cpp:396] d_inner2relu <- d_inner2
I0626 03:06:32.925458 16647 net.cpp:347] d_inner2relu -> d_inner2 (in-place)
I0626 03:06:32.925468 16647 net.cpp:96] Setting up d_inner2relu
I0626 03:06:32.925477 16647 net.cpp:103] Top shape: 256 500 1 1 (128000)
I0626 03:06:32.925485 16647 net.cpp:67] Creating Layer d_inner2drop
I0626 03:06:32.925493 16647 net.cpp:396] d_inner2drop <- d_inner2
I0626 03:06:32.925503 16647 net.cpp:347] d_inner2drop -> d_inner2 (in-place)
I0626 03:06:32.925510 16647 net.cpp:96] Setting up d_inner2drop
I0626 03:06:32.925519 16647 net.cpp:103] Top shape: 256 500 1 1 (128000)
I0626 03:06:32.925530 16647 net.cpp:67] Creating Layer d_inner1
I0626 03:06:32.925539 16647 net.cpp:396] d_inner1 <- d_inner2
I0626 03:06:32.925549 16647 net.cpp:358] d_inner1 -> d_inner1
I0626 03:06:32.925559 16647 net.cpp:96] Setting up d_inner1
I0626 03:06:32.928512 16647 net.cpp:103] Top shape: 256 500 1 1 (128000)
I0626 03:06:32.928530 16647 net.cpp:67] Creating Layer d_inner1relu
I0626 03:06:32.928539 16647 net.cpp:396] d_inner1relu <- d_inner1
I0626 03:06:32.928558 16647 net.cpp:347] d_inner1relu -> d_inner1 (in-place)
I0626 03:06:32.928567 16647 net.cpp:96] Setting up d_inner1relu
I0626 03:06:32.928575 16647 net.cpp:103] Top shape: 256 500 1 1 (128000)
I0626 03:06:32.928584 16647 net.cpp:67] Creating Layer d_inner1drop
I0626 03:06:32.928592 16647 net.cpp:396] d_inner1drop <- d_inner1
I0626 03:06:32.928601 16647 net.cpp:347] d_inner1drop -> d_inner1 (in-place)
I0626 03:06:32.928611 16647 net.cpp:96] Setting up d_inner1drop
I0626 03:06:32.928619 16647 net.cpp:103] Top shape: 256 500 1 1 (128000)
I0626 03:06:32.928629 16647 net.cpp:67] Creating Layer d_data
I0626 03:06:32.928637 16647 net.cpp:396] d_data <- d_inner1
I0626 03:06:32.928648 16647 net.cpp:358] d_data -> d_data
I0626 03:06:32.928658 16647 net.cpp:96] Setting up d_data
I0626 03:06:32.949875 16647 net.cpp:103] Top shape: 256 3600 1 1 (921600)
I0626 03:06:32.949923 16647 net.cpp:67] Creating Layer pt_loss
I0626 03:06:32.949931 16647 net.cpp:396] pt_loss <- d_data
I0626 03:06:32.949941 16647 net.cpp:396] pt_loss <- data_data_0_split_1
I0626 03:06:32.949954 16647 net.cpp:358] pt_loss -> pt_loss
I0626 03:06:32.949965 16647 net.cpp:96] Setting up pt_loss
I0626 03:06:32.949981 16647 net.cpp:103] Top shape: 1 1 1 1 (1)
I0626 03:06:32.949990 16647 net.cpp:109]     with loss weight 1
I0626 03:06:32.950026 16647 net.cpp:170] pt_loss needs backward computation.
I0626 03:06:32.950034 16647 net.cpp:170] d_data needs backward computation.
I0626 03:06:32.950042 16647 net.cpp:170] d_inner1drop needs backward computation.
I0626 03:06:32.950050 16647 net.cpp:170] d_inner1relu needs backward computation.
I0626 03:06:32.950057 16647 net.cpp:170] d_inner1 needs backward computation.
…
I0626 03:06:44.400310  8898 net.cpp:39] Initializing net from parameters: 
name: "net"
layers {
  top: "data"
  name: "data"
  type: DATA
  data_param {
    source: "modules/image30x30_dim50/database/total"
    batch_size: 256
    backend: LEVELDB
    seek: "00000000"
  }
  include {
    phase: TRAIN
  }
  transform_param {
    scale: 1
  }
}
layers {
  top: "label"
  name: "label"
  type: DATA
  data_param {
    source: "modules/image30x30_dim50/train_weight"
    batch_size: 256
    backend: LEVELDB
    seek: "00000000"
  }
  include {
    phase: TRAIN
  }
  transform_param {
    scale: 1
  }
}
layers {
  bottom: "data"
  top: "inner1"
  name: "inner1"
  type: INNER_PRODUCT
  blobs_lr: 1
  blobs_lr: 2
  weight_decay: 1
  weight_decay: 0
  inner_product_param {
    num_output: 500
    weight_filler {
      type: "gaussian"
      std: 0.05
    }
    bias_filler {
      type: "constant"
      value: 0
    }
  }
}
layers {
  bottom: "inner1"
  top: "inner1"
  name: "inner1relu"
  type: RELU
}
layers {
  bottom: "inner1"
  top: "inner2"
  name: "inner2"
  type: INNER_PRODUCT
  blobs_lr: 1
  blobs_lr: 2
  weight_decay: 1
  weight_decay: 0
  inner_product_param {
    num_output: 500
    weight_filler {
      type: "gaussian"
      std: 0.05
    }
    bias_filler {
      type: "constant"
      value: 0
    }
  }
}
layers {
  bottom: "inner2"
  top: "inner2"
  name: "inner2relu"
  type: RELU
}
layers {
  bottom: "inner2"
  top: "inner3"
  name: "inner3"
  type: INNER_PRODUCT
  blobs_lr: 1
  blobs_lr: 2
  weight_decay: 1
  weight_decay: 0
  inner_product_param {
    num_output: 2000
    weight_filler {
      type: "gaussian"
      std: 0.05
    }
    bias_filler {
      type: "constant"
      value: 0
    }
  }
}
layers {
  bottom: "inner3"
  top: "inner3"
  name: "inner3relu"
  type: RELU
}
layers {
  bottom: "inner3"
  top: "output"
  name: "output"
  type: INNER_PRODUCT
  blobs_lr: 1
  blobs_lr: 2
  weight_decay: 1
  weight_decay: 0
  inner_product_param {
    num_output: 50
    weight_filler {
      type: "gaussian"
      std: 0.05
    }
    bias_filler {
      type: "constant"
      value: 0
    }
  }
}
layers {
  bottom: "output"
  bottom: "label"
  top: "loss"
  top: "std"
  top: "ind"
  top: "proba"
  name: "loss"
  type: MULTI_T_LOSS
  blobs_lr: 1
  blobs_lr: 0
  blobs_lr: 0
  multi_t_loss_param {
    num_center: 5
    lambda: 2
    beta: 1
    weight_filler {
      type: "gaussian"
      std: 0.5
    }
    bandwidth: 0.1
    alpha: 1
  }
}
layers {
  bottom: "label"
  bottom: "ind"
  bottom: "proba"
  name: "silence"
  type: SILENCE
}
I0626 03:06:44.400378  8898 net.cpp:67] Creating Layer data
I0626 03:06:44.400390  8898 net.cpp:358] data -> data
I0626 03:06:44.400406  8898 net.cpp:96] Setting up data
I0626 03:06:44.400415  8898 data_layer.cpp:45] Opening leveldb modules/image30x30_dim50/database/total
I0626 03:06:44.547047  8898 data_layer.cpp:145] output data size: 256,3600,1,1
I0626 03:06:44.548817  8898 net.cpp:103] Top shape: 256 3600 1 1 (921600)
I0626 03:06:44.548872  8898 net.cpp:67] Creating Layer label
I0626 03:06:44.548895  8898 net.cpp:358] label -> label
I0626 03:06:44.548925  8898 net.cpp:96] Setting up label
I0626 03:06:44.548943  8898 data_layer.cpp:45] Opening leveldb modules/image30x30_dim50/train_weight
I0626 03:06:44.663431  8898 data_layer.cpp:145] output data size: 256,5,1,1
I0626 03:06:44.663555  8898 net.cpp:103] Top shape: 256 5 1 1 (1280)
I0626 03:06:44.663591  8898 net.cpp:67] Creating Layer label_label_0_split
I0626 03:06:44.663611  8898 net.cpp:396] label_label_0_split <- label
I0626 03:06:44.663635  8898 net.cpp:358] label_label_0_split -> label_label_0_split_0
I0626 03:06:44.663662  8898 net.cpp:358] label_label_0_split -> label_label_0_split_1
I0626 03:06:44.663695  8898 net.cpp:96] Setting up label_label_0_split
I0626 03:06:44.663715  8898 net.cpp:103] Top shape: 256 5 1 1 (1280)
I0626 03:06:44.663731  8898 net.cpp:103] Top shape: 256 5 1 1 (1280)
I0626 03:06:44.663753  8898 net.cpp:67] Creating Layer inner1
I0626 03:06:44.663769  8898 net.cpp:396] inner1 <- data
I0626 03:06:44.663790  8898 net.cpp:358] inner1 -> inner1
I0626 03:06:44.663815  8898 net.cpp:96] Setting up inner1
I0626 03:06:44.691215  8898 net.cpp:103] Top shape: 256 500 1 1 (128000)
I0626 03:06:44.691256  8898 net.cpp:67] Creating Layer inner1relu
I0626 03:06:44.691267  8898 net.cpp:396] inner1relu <- inner1
I0626 03:06:44.691277  8898 net.cpp:347] inner1relu -> inner1 (in-place)
I0626 03:06:44.691289  8898 net.cpp:96] Setting up inner1relu
I0626 03:06:44.691298  8898 net.cpp:103] Top shape: 256 500 1 1 (128000)
I0626 03:06:44.691308  8898 net.cpp:67] Creating Layer inner2
I0626 03:06:44.691316  8898 net.cpp:396] inner2 <- inner1
I0626 03:06:44.691325  8898 net.cpp:358] inner2 -> inner2
I0626 03:06:44.691336  8898 net.cpp:96] Setting up inner2
I0626 03:06:44.694181  8898 net.cpp:103] Top shape: 256 500 1 1 (128000)
I0626 03:06:44.694200  8898 net.cpp:67] Creating Layer inner2relu
I0626 03:06:44.694207  8898 net.cpp:396] inner2relu <- inner2
I0626 03:06:44.694216  8898 net.cpp:347] inner2relu -> inner2 (in-place)
I0626 03:06:44.694226  8898 net.cpp:96] Setting up inner2relu
I0626 03:06:44.694233  8898 net.cpp:103] Top shape: 256 500 1 1 (128000)
I0626 03:06:44.694243  8898 net.cpp:67] Creating Layer inner3
I0626 03:06:44.694252  8898 net.cpp:396] inner3 <- inner2
I0626 03:06:44.694260  8898 net.cpp:358] inner3 -> inner3
I0626 03:06:44.694270  8898 net.cpp:96] Setting up inner3
I0626 03:06:44.706351  8898 net.cpp:103] Top shape: 256 2000 1 1 (512000)
I0626 03:06:44.706404  8898 net.cpp:67] Creating Layer inner3relu
I0626 03:06:44.706414  8898 net.cpp:396] inner3relu <- inner3
I0626 03:06:44.706426  8898 net.cpp:347] inner3relu -> inner3 (in-place)
I0626 03:06:44.706437  8898 net.cpp:96] Setting up inner3relu
I0626 03:06:44.706445  8898 net.cpp:103] Top shape: 256 2000 1 1 (512000)
I0626 03:06:44.706456  8898 net.cpp:67] Creating Layer output
I0626 03:06:44.706465  8898 net.cpp:396] output <- inner3
I0626 03:06:44.706475  8898 net.cpp:358] output -> output
I0626 03:06:44.706485  8898 net.cpp:96] Setting up output
I0626 03:06:44.707687  8898 net.cpp:103] Top shape: 256 50 1 1 (12800)
I0626 03:06:44.707706  8898 net.cpp:67] Creating Layer loss
I0626 03:06:44.707715  8898 net.cpp:396] loss <- output
I0626 03:06:44.707736  8898 net.cpp:396] loss <- label_label_0_split_0
I0626 03:06:44.707746  8898 net.cpp:358] loss -> loss
I0626 03:06:44.707759  8898 net.cpp:358] loss -> std
I0626 03:06:44.707770  8898 net.cpp:358] loss -> ind
I0626 03:06:44.707782  8898 net.cpp:358] loss -> proba
I0626 03:06:44.707790  8898 net.cpp:96] Setting up loss
I0626 03:06:44.707798  8898 multi_t_loss_layer.cpp:17] 5 50 12800
I0626 03:06:44.707813  8898 net.cpp:103] Top shape: 1 1 1 1 (1)
I0626 03:06:44.707821  8898 net.cpp:109]     with loss weight 1
I0626 03:06:44.707837  8898 net.cpp:103] Top shape: 1 1 1 1 (1)
I0626 03:06:44.707845  8898 net.cpp:103] Top shape: 256 1 1 1 (256)
I0626 03:06:44.707852  8898 net.cpp:103] Top shape: 256 5 1 1 (1280)
I0626 03:06:44.707865  8898 net.cpp:67] Creating Layer silence
I0626 03:06:44.707873  8898 net.cpp:396] silence <- label_label_0_split_1
I0626 03:06:44.707882  8898 net.cpp:396] silence <- ind
I0626 03:06:44.707890  8898 net.cpp:396] silence <- proba
I0626 03:06:44.707898  8898 net.cpp:96] Setting up silence
I0626 03:06:44.707906  8898 net.cpp:172] silence does not need backward computation.
…
